node {
  name: "Const"
  op: "Const"
  attr {
    key: "dtype"
    value {
      type: DT_FLOAT
    }
  }
  attr {
    key: "value"
    value {
      tensor {
        dtype: DT_FLOAT
        tensor_shape {
          dim {
            size: 2
          }
        }
        tensor_content: "\000\000\200?\000\000\000\000"
      }
    }
  }
}
node {
  name: "image_tensor"
  op: "Placeholder"
  attr {
    key: "dtype"
    value {
      type: DT_UINT8
    }
  }
  attr {
    key: "shape"
    value {
      shape {
        dim {
          size: -1
        }
        dim {
          size: -1
        }
        dim {
          size: -1
        }
        dim {
          size: 3
        }
      }
    }
  }
}
node {
  name: "Cast"
  op: "Cast"
  input: "image_tensor"
  attr {
    key: "DstT"
    value {
      type: DT_FLOAT
    }
  }
  attr {
    key: "SrcT"
    value {
      type: DT_UINT8
    }
  }
  attr {
    key: "Truncate"
    value {
      b: false
    }
  }
}
node {
  name: "Preprocessor/map/Shape"
  op: "Shape"
  input: "Cast"
  attr {
    key: "T"
    value {
      type: DT_FLOAT
    }
  }
  attr {
    key: "out_type"
    value {
      type: DT_INT32
    }
  }
}
node {
  name: "Preprocessor/map/strided_slice/stack"
  op: "Const"
  attr {
    key: "dtype"
    value {
      type: DT_INT32
    }
  }
  attr {
    key: "value"
    value {
      tensor {
        dtype: DT_INT32
        tensor_shape {
          dim {
            size: 1
          }
        }
        int_val: 0
      }
    }
  }
}
node {
  name: "Preprocessor/map/strided_slice/stack_1"
  op: "Const"
  attr {
    key: "dtype"
    value {
      type: DT_INT32
    }
  }
  attr {
    key: "value"
    value {
      tensor {
        dtype: DT_INT32
        tensor_shape {
          dim {
            size: 1
          }
        }
        int_val: 1
      }
    }
  }
}
node {
  name: "Preprocessor/map/strided_slice/stack_2"
  op: "Const"
  attr {
    key: "dtype"
    value {
      type: DT_INT32
    }
  }
  attr {
    key: "value"
    value {
      tensor {
        dtype: DT_INT32
        tensor_shape {
          dim {
            size: 1
          }
        }
        int_val: 1
      }
    }
  }
}
node {
  name: "Preprocessor/map/strided_slice"
  op: "StridedSlice"
  input: "Preprocessor/map/Shape"
  input: "Preprocessor/map/strided_slice/stack"
  input: "Preprocessor/map/strided_slice/stack_1"
  input: "Preprocessor/map/strided_slice/stack_2"
  attr {
    key: "Index"
    value {
      type: DT_INT32
    }
  }
  attr {
    key: "T"
    value {
      type: DT_INT32
    }
  }
  attr {
    key: "begin_mask"
    value {
      i: 0
    }
  }
  attr {
    key: "ellipsis_mask"
    value {
      i: 0
    }
  }
  attr {
    key: "end_mask"
    value {
      i: 0
    }
  }
  attr {
    key: "new_axis_mask"
    value {
      i: 0
    }
  }
  attr {
    key: "shrink_axis_mask"
    value {
      i: 1
    }
  }
}
node {
  name: "Preprocessor/map/TensorArray"
  op: "TensorArrayV3"
  input: "Preprocessor/map/strided_slice"
  attr {
    key: "clear_after_read"
    value {
      b: true
    }
  }
  attr {
    key: "dtype"
    value {
      type: DT_FLOAT
    }
  }
  attr {
    key: "dynamic_size"
    value {
      b: false
    }
  }
  attr {
    key: "element_shape"
    value {
      shape {
        unknown_rank: true
      }
    }
  }
  attr {
    key: "identical_element_shapes"
    value {
      b: true
    }
  }
  attr {
    key: "tensor_array_name"
    value {
      s: ""
    }
  }
}
node {
  name: "Preprocessor/map/TensorArrayUnstack/Shape"
  op: "Shape"
  input: "Cast"
  attr {
    key: "T"
    value {
      type: DT_FLOAT
    }
  }
  attr {
    key: "out_type"
    value {
      type: DT_INT32
    }
  }
}
node {
  name: "Preprocessor/map/TensorArrayUnstack/strided_slice/stack"
  op: "Const"
  attr {
    key: "dtype"
    value {
      type: DT_INT32
    }
  }
  attr {
    key: "value"
    value {
      tensor {
        dtype: DT_INT32
        tensor_shape {
          dim {
            size: 1
          }
        }
        int_val: 0
      }
    }
  }
}
node {
  name: "Preprocessor/map/TensorArrayUnstack/strided_slice/stack_1"
  op: "Const"
  attr {
    key: "dtype"
    value {
      type: DT_INT32
    }
  }
  attr {
    key: "value"
    value {
      tensor {
        dtype: DT_INT32
        tensor_shape {
          dim {
            size: 1
          }
        }
        int_val: 1
      }
    }
  }
}
node {
  name: "Preprocessor/map/TensorArrayUnstack/strided_slice/stack_2"
  op: "Const"
  attr {
    key: "dtype"
    value {
      type: DT_INT32
    }
  }
  attr {
    key: "value"
    value {
      tensor {
        dtype: DT_INT32
        tensor_shape {
          dim {
            size: 1
          }
        }
        int_val: 1
      }
    }
  }
}
node {
  name: "Preprocessor/map/TensorArrayUnstack/strided_slice"
  op: "StridedSlice"
  input: "Preprocessor/map/TensorArrayUnstack/Shape"
  input: "Preprocessor/map/TensorArrayUnstack/strided_slice/stack"
  input: "Preprocessor/map/TensorArrayUnstack/strided_slice/stack_1"
  input: "Preprocessor/map/TensorArrayUnstack/strided_slice/stack_2"
  attr {
    key: "Index"
    value {
      type: DT_INT32
    }
  }
  attr {
    key: "T"
    value {
      type: DT_INT32
    }
  }
  attr {
    key: "begin_mask"
    value {
      i: 0
    }
  }
  attr {
    key: "ellipsis_mask"
    value {
      i: 0
    }
  }
  attr {
    key: "end_mask"
    value {
      i: 0
    }
  }
  attr {
    key: "new_axis_mask"
    value {
      i: 0
    }
  }
  attr {
    key: "shrink_axis_mask"
    value {
      i: 1
    }
  }
}
node {
  name: "Preprocessor/map/TensorArrayUnstack/range/start"
  op: "Const"
  attr {
    key: "dtype"
    value {
      type: DT_INT32
    }
  }
  attr {
    key: "value"
    value {
      tensor {
        dtype: DT_INT32
        tensor_shape {
        }
        int_val: 0
      }
    }
  }
}
node {
  name: "Preprocessor/map/TensorArrayUnstack/range/delta"
  op: "Const"
  attr {
    key: "dtype"
    value {
      type: DT_INT32
    }
  }
  attr {
    key: "value"
    value {
      tensor {
        dtype: DT_INT32
        tensor_shape {
        }
        int_val: 1
      }
    }
  }
}
node {
  name: "Preprocessor/map/TensorArrayUnstack/range"
  op: "Range"
  input: "Preprocessor/map/TensorArrayUnstack/range/start"
  input: "Preprocessor/map/TensorArrayUnstack/strided_slice"
  input: "Preprocessor/map/TensorArrayUnstack/range/delta"
  attr {
    key: "Tidx"
    value {
      type: DT_INT32
    }
  }
}
node {
  name: "Preprocessor/map/TensorArrayUnstack/TensorArrayScatter/TensorArrayScatterV3"
  op: "TensorArrayScatterV3"
  input: "Preprocessor/map/TensorArray"
  input: "Preprocessor/map/TensorArrayUnstack/range"
  input: "Cast"
  input: "Preprocessor/map/TensorArray:1"
  attr {
    key: "T"
    value {
      type: DT_FLOAT
    }
  }
  attr {
    key: "_class"
    value {
      list {
        s: "loc:@Cast"
      }
    }
  }
}
node {
  name: "Preprocessor/map/Const"
  op: "Const"
  attr {
    key: "dtype"
    value {
      type: DT_INT32
    }
  }
  attr {
    key: "value"
    value {
      tensor {
        dtype: DT_INT32
        tensor_shape {
        }
        int_val: 0
      }
    }
  }
}
node {
  name: "Preprocessor/map/TensorArray_1"
  op: "TensorArrayV3"
  input: "Preprocessor/map/strided_slice"
  attr {
    key: "clear_after_read"
    value {
      b: true
    }
  }
  attr {
    key: "dtype"
    value {
      type: DT_FLOAT
    }
  }
  attr {
    key: "dynamic_size"
    value {
      b: false
    }
  }
  attr {
    key: "element_shape"
    value {
      shape {
        unknown_rank: true
      }
    }
  }
  attr {
    key: "identical_element_shapes"
    value {
      b: true
    }
  }
  attr {
    key: "tensor_array_name"
    value {
      s: ""
    }
  }
}
node {
  name: "Preprocessor/map/TensorArray_2"
  op: "TensorArrayV3"
  input: "Preprocessor/map/strided_slice"
  attr {
    key: "clear_after_read"
    value {
      b: true
    }
  }
  attr {
    key: "dtype"
    value {
      type: DT_INT32
    }
  }
  attr {
    key: "dynamic_size"
    value {
      b: false
    }
  }
  attr {
    key: "element_shape"
    value {
      shape {
        unknown_rank: true
      }
    }
  }
  attr {
    key: "identical_element_shapes"
    value {
      b: true
    }
  }
  attr {
    key: "tensor_array_name"
    value {
      s: ""
    }
  }
}
node {
  name: "Preprocessor/map/while/iteration_counter"
  op: "Const"
  attr {
    key: "dtype"
    value {
      type: DT_INT32
    }
  }
  attr {
    key: "value"
    value {
      tensor {
        dtype: DT_INT32
        tensor_shape {
        }
        int_val: 0
      }
    }
  }
}
node {
  name: "Preprocessor/map/while/Enter"
  op: "Enter"
  input: "Preprocessor/map/while/iteration_counter"
  attr {
    key: "T"
    value {
      type: DT_INT32
    }
  }
  attr {
    key: "frame_name"
    value {
      s: "Preprocessor/map/while/while_context"
    }
  }
  attr {
    key: "is_constant"
    value {
      b: false
    }
  }
  attr {
    key: "parallel_iterations"
    value {
      i: 32
    }
  }
}
node {
  name: "Preprocessor/map/while/Enter_1"
  op: "Enter"
  input: "Preprocessor/map/Const"
  attr {
    key: "T"
    value {
      type: DT_INT32
    }
  }
  attr {
    key: "frame_name"
    value {
      s: "Preprocessor/map/while/while_context"
    }
  }
  attr {
    key: "is_constant"
    value {
      b: false
    }
  }
  attr {
    key: "parallel_iterations"
    value {
      i: 32
    }
  }
}
node {
  name: "Preprocessor/map/while/Enter_2"
  op: "Enter"
  input: "Preprocessor/map/TensorArray_1:1"
  attr {
    key: "T"
    value {
      type: DT_FLOAT
    }
  }
  attr {
    key: "frame_name"
    value {
      s: "Preprocessor/map/while/while_context"
    }
  }
  attr {
    key: "is_constant"
    value {
      b: false
    }
  }
  attr {
    key: "parallel_iterations"
    value {
      i: 32
    }
  }
}
node {
  name: "Preprocessor/map/while/Enter_3"
  op: "Enter"
  input: "Preprocessor/map/TensorArray_2:1"
  attr {
    key: "T"
    value {
      type: DT_FLOAT
    }
  }
  attr {
    key: "frame_name"
    value {
      s: "Preprocessor/map/while/while_context"
    }
  }
  attr {
    key: "is_constant"
    value {
      b: false
    }
  }
  attr {
    key: "parallel_iterations"
    value {
      i: 32
    }
  }
}
node {
  name: "Preprocessor/map/while/Merge"
  op: "Merge"
  input: "Preprocessor/map/while/Enter"
  input: "Preprocessor/map/while/NextIteration"
  attr {
    key: "N"
    value {
      i: 2
    }
  }
  attr {
    key: "T"
    value {
      type: DT_INT32
    }
  }
}
node {
  name: "Preprocessor/map/while/Merge_1"
  op: "Merge"
  input: "Preprocessor/map/while/Enter_1"
  input: "Preprocessor/map/while/NextIteration_1"
  attr {
    key: "N"
    value {
      i: 2
    }
  }
  attr {
    key: "T"
    value {
      type: DT_INT32
    }
  }
}
node {
  name: "Preprocessor/map/while/Merge_2"
  op: "Merge"
  input: "Preprocessor/map/while/Enter_2"
  input: "Preprocessor/map/while/NextIteration_2"
  attr {
    key: "N"
    value {
      i: 2
    }
  }
  attr {
    key: "T"
    value {
      type: DT_FLOAT
    }
  }
}
node {
  name: "Preprocessor/map/while/Merge_3"
  op: "Merge"
  input: "Preprocessor/map/while/Enter_3"
  input: "Preprocessor/map/while/NextIteration_3"
  attr {
    key: "N"
    value {
      i: 2
    }
  }
  attr {
    key: "T"
    value {
      type: DT_FLOAT
    }
  }
}
node {
  name: "Preprocessor/map/while/Less"
  op: "Less"
  input: "Preprocessor/map/while/Merge"
  input: "Preprocessor/map/while/Less/Enter"
  attr {
    key: "T"
    value {
      type: DT_INT32
    }
  }
}
node {
  name: "Preprocessor/map/while/Less/Enter"
  op: "Enter"
  input: "Preprocessor/map/strided_slice"
  attr {
    key: "T"
    value {
      type: DT_INT32
    }
  }
  attr {
    key: "frame_name"
    value {
      s: "Preprocessor/map/while/while_context"
    }
  }
  attr {
    key: "is_constant"
    value {
      b: true
    }
  }
  attr {
    key: "parallel_iterations"
    value {
      i: 32
    }
  }
}
node {
  name: "Preprocessor/map/while/Less_1"
  op: "Less"
  input: "Preprocessor/map/while/Merge_1"
  input: "Preprocessor/map/while/Less/Enter"
  attr {
    key: "T"
    value {
      type: DT_INT32
    }
  }
}
node {
  name: "Preprocessor/map/while/LogicalAnd"
  op: "LogicalAnd"
  input: "Preprocessor/map/while/Less"
  input: "Preprocessor/map/while/Less_1"
}
node {
  name: "Preprocessor/map/while/LoopCond"
  op: "LoopCond"
  input: "Preprocessor/map/while/LogicalAnd"
}
node {
  name: "Preprocessor/map/while/Switch"
  op: "Switch"
  input: "Preprocessor/map/while/Merge"
  input: "Preprocessor/map/while/LoopCond"
  attr {
    key: "T"
    value {
      type: DT_INT32
    }
  }
  attr {
    key: "_class"
    value {
      list {
        s: "loc:@Preprocessor/map/while/Merge"
      }
    }
  }
}
node {
  name: "Preprocessor/map/while/Switch_1"
  op: "Switch"
  input: "Preprocessor/map/while/Merge_1"
  input: "Preprocessor/map/while/LoopCond"
  attr {
    key: "T"
    value {
      type: DT_INT32
    }
  }
  attr {
    key: "_class"
    value {
      list {
        s: "loc:@Preprocessor/map/while/Merge_1"
      }
    }
  }
}
node {
  name: "Preprocessor/map/while/Switch_2"
  op: "Switch"
  input: "Preprocessor/map/while/Merge_2"
  input: "Preprocessor/map/while/LoopCond"
  attr {
    key: "T"
    value {
      type: DT_FLOAT
    }
  }
  attr {
    key: "_class"
    value {
      list {
        s: "loc:@Preprocessor/map/while/Merge_2"
      }
    }
  }
}
node {
  name: "Preprocessor/map/while/Switch_3"
  op: "Switch"
  input: "Preprocessor/map/while/Merge_3"
  input: "Preprocessor/map/while/LoopCond"
  attr {
    key: "T"
    value {
      type: DT_FLOAT
    }
  }
  attr {
    key: "_class"
    value {
      list {
        s: "loc:@Preprocessor/map/while/Merge_3"
      }
    }
  }
}
node {
  name: "Preprocessor/map/while/Identity"
  op: "Identity"
  input: "Preprocessor/map/while/Switch:1"
  attr {
    key: "T"
    value {
      type: DT_INT32
    }
  }
}
node {
  name: "Preprocessor/map/while/Identity_1"
  op: "Identity"
  input: "Preprocessor/map/while/Switch_1:1"
  attr {
    key: "T"
    value {
      type: DT_INT32
    }
  }
}
node {
  name: "Preprocessor/map/while/Identity_2"
  op: "Identity"
  input: "Preprocessor/map/while/Switch_2:1"
  attr {
    key: "T"
    value {
      type: DT_FLOAT
    }
  }
}
node {
  name: "Preprocessor/map/while/Identity_3"
  op: "Identity"
  input: "Preprocessor/map/while/Switch_3:1"
  attr {
    key: "T"
    value {
      type: DT_FLOAT
    }
  }
}
node {
  name: "Preprocessor/map/while/add/y"
  op: "Const"
  input: "^Preprocessor/map/while/Identity"
  attr {
    key: "dtype"
    value {
      type: DT_INT32
    }
  }
  attr {
    key: "value"
    value {
      tensor {
        dtype: DT_INT32
        tensor_shape {
        }
        int_val: 1
      }
    }
  }
}
node {
  name: "Preprocessor/map/while/add"
  op: "Add"
  input: "Preprocessor/map/while/Identity"
  input: "Preprocessor/map/while/add/y"
  attr {
    key: "T"
    value {
      type: DT_INT32
    }
  }
}
node {
  name: "Preprocessor/map/while/TensorArrayReadV3"
  op: "TensorArrayReadV3"
  input: "Preprocessor/map/while/TensorArrayReadV3/Enter"
  input: "Preprocessor/map/while/Identity_1"
  input: "Preprocessor/map/while/TensorArrayReadV3/Enter_1"
  attr {
    key: "dtype"
    value {
      type: DT_FLOAT
    }
  }
}
node {
  name: "Preprocessor/map/while/TensorArrayReadV3/Enter"
  op: "Enter"
  input: "Preprocessor/map/TensorArray"
  attr {
    key: "T"
    value {
      type: DT_RESOURCE
    }
  }
  attr {
    key: "frame_name"
    value {
      s: "Preprocessor/map/while/while_context"
    }
  }
  attr {
    key: "is_constant"
    value {
      b: true
    }
  }
  attr {
    key: "parallel_iterations"
    value {
      i: 32
    }
  }
}
node {
  name: "Preprocessor/map/while/TensorArrayReadV3/Enter_1"
  op: "Enter"
  input: "Preprocessor/map/TensorArrayUnstack/TensorArrayScatter/TensorArrayScatterV3"
  attr {
    key: "T"
    value {
      type: DT_FLOAT
    }
  }
  attr {
    key: "frame_name"
    value {
      s: "Preprocessor/map/while/while_context"
    }
  }
  attr {
    key: "is_constant"
    value {
      b: true
    }
  }
  attr {
    key: "parallel_iterations"
    value {
      i: 32
    }
  }
}
node {
  name: "Preprocessor/map/while/ResizeImage/stack"
  op: "Const"
  input: "^Preprocessor/map/while/Identity"
  attr {
    key: "dtype"
    value {
      type: DT_INT32
    }
  }
  attr {
    key: "value"
    value {
      tensor {
        dtype: DT_INT32
        tensor_shape {
          dim {
            size: 2
          }
        }
        tensor_content: ",\001\000\000,\001\000\000"
      }
    }
  }
}
node {
  name: "Preprocessor/map/while/ResizeImage/resize/ExpandDims/dim"
  op: "Const"
  input: "^Preprocessor/map/while/Identity"
  attr {
    key: "dtype"
    value {
      type: DT_INT32
    }
  }
  attr {
    key: "value"
    value {
      tensor {
        dtype: DT_INT32
        tensor_shape {
        }
        int_val: 0
      }
    }
  }
}
node {
  name: "Preprocessor/map/while/ResizeImage/resize/ExpandDims"
  op: "ExpandDims"
  input: "Preprocessor/map/while/TensorArrayReadV3"
  input: "Preprocessor/map/while/ResizeImage/resize/ExpandDims/dim"
  attr {
    key: "T"
    value {
      type: DT_FLOAT
    }
  }
  attr {
    key: "Tdim"
    value {
      type: DT_INT32
    }
  }
}
node {
  name: "Preprocessor/map/while/ResizeImage/resize/ResizeBilinear"
  op: "ResizeBilinear"
  input: "Preprocessor/map/while/ResizeImage/resize/ExpandDims"
  input: "Preprocessor/map/while/ResizeImage/stack"
  attr {
    key: "T"
    value {
      type: DT_FLOAT
    }
  }
  attr {
    key: "align_corners"
    value {
      b: false
    }
  }
  attr {
    key: "half_pixel_centers"
    value {
      b: false
    }
  }
}
node {
  name: "Preprocessor/map/while/ResizeImage/resize/Squeeze"
  op: "Squeeze"
  input: "Preprocessor/map/while/ResizeImage/resize/ResizeBilinear"
  attr {
    key: "T"
    value {
      type: DT_FLOAT
    }
  }
  attr {
    key: "squeeze_dims"
    value {
      list {
        i: 0
      }
    }
  }
}
node {
  name: "Preprocessor/map/while/ResizeImage/Shape"
  op: "Shape"
  input: "Preprocessor/map/while/TensorArrayReadV3"
  attr {
    key: "T"
    value {
      type: DT_FLOAT
    }
  }
  attr {
    key: "out_type"
    value {
      type: DT_INT32
    }
  }
}
node {
  name: "Preprocessor/map/while/ResizeImage/strided_slice/stack"
  op: "Const"
  input: "^Preprocessor/map/while/Identity"
  attr {
    key: "dtype"
    value {
      type: DT_INT32
    }
  }
  attr {
    key: "value"
    value {
      tensor {
        dtype: DT_INT32
        tensor_shape {
          dim {
            size: 1
          }
        }
        int_val: 0
      }
    }
  }
}
node {
  name: "Preprocessor/map/while/ResizeImage/strided_slice/stack_1"
  op: "Const"
  input: "^Preprocessor/map/while/Identity"
  attr {
    key: "dtype"
    value {
      type: DT_INT32
    }
  }
  attr {
    key: "value"
    value {
      tensor {
        dtype: DT_INT32
        tensor_shape {
          dim {
            size: 1
          }
        }
        int_val: 1
      }
    }
  }
}
node {
  name: "Preprocessor/map/while/ResizeImage/strided_slice/stack_2"
  op: "Const"
  input: "^Preprocessor/map/while/Identity"
  attr {
    key: "dtype"
    value {
      type: DT_INT32
    }
  }
  attr {
    key: "value"
    value {
      tensor {
        dtype: DT_INT32
        tensor_shape {
          dim {
            size: 1
          }
        }
        int_val: 1
      }
    }
  }
}
node {
  name: "Preprocessor/map/while/ResizeImage/strided_slice"
  op: "StridedSlice"
  input: "Preprocessor/map/while/ResizeImage/Shape"
  input: "Preprocessor/map/while/ResizeImage/strided_slice/stack"
  input: "Preprocessor/map/while/ResizeImage/strided_slice/stack_1"
  input: "Preprocessor/map/while/ResizeImage/strided_slice/stack_2"
  attr {
    key: "Index"
    value {
      type: DT_INT32
    }
  }
  attr {
    key: "T"
    value {
      type: DT_INT32
    }
  }
  attr {
    key: "begin_mask"
    value {
      i: 0
    }
  }
  attr {
    key: "ellipsis_mask"
    value {
      i: 0
    }
  }
  attr {
    key: "end_mask"
    value {
      i: 0
    }
  }
  attr {
    key: "new_axis_mask"
    value {
      i: 0
    }
  }
  attr {
    key: "shrink_axis_mask"
    value {
      i: 1
    }
  }
}
node {
  name: "Preprocessor/map/while/ResizeImage/strided_slice_1/stack"
  op: "Const"
  input: "^Preprocessor/map/while/Identity"
  attr {
    key: "dtype"
    value {
      type: DT_INT32
    }
  }
  attr {
    key: "value"
    value {
      tensor {
        dtype: DT_INT32
        tensor_shape {
          dim {
            size: 1
          }
        }
        int_val: 1
      }
    }
  }
}
node {
  name: "Preprocessor/map/while/ResizeImage/strided_slice_1/stack_1"
  op: "Const"
  input: "^Preprocessor/map/while/Identity"
  attr {
    key: "dtype"
    value {
      type: DT_INT32
    }
  }
  attr {
    key: "value"
    value {
      tensor {
        dtype: DT_INT32
        tensor_shape {
          dim {
            size: 1
          }
        }
        int_val: 2
      }
    }
  }
}
node {
  name: "Preprocessor/map/while/ResizeImage/strided_slice_1/stack_2"
  op: "Const"
  input: "^Preprocessor/map/while/Identity"
  attr {
    key: "dtype"
    value {
      type: DT_INT32
    }
  }
  attr {
    key: "value"
    value {
      tensor {
        dtype: DT_INT32
        tensor_shape {
          dim {
            size: 1
          }
        }
        int_val: 1
      }
    }
  }
}
node {
  name: "Preprocessor/map/while/ResizeImage/strided_slice_1"
  op: "StridedSlice"
  input: "Preprocessor/map/while/ResizeImage/Shape"
  input: "Preprocessor/map/while/ResizeImage/strided_slice_1/stack"
  input: "Preprocessor/map/while/ResizeImage/strided_slice_1/stack_1"
  input: "Preprocessor/map/while/ResizeImage/strided_slice_1/stack_2"
  attr {
    key: "Index"
    value {
      type: DT_INT32
    }
  }
  attr {
    key: "T"
    value {
      type: DT_INT32
    }
  }
  attr {
    key: "begin_mask"
    value {
      i: 0
    }
  }
  attr {
    key: "ellipsis_mask"
    value {
      i: 0
    }
  }
  attr {
    key: "end_mask"
    value {
      i: 0
    }
  }
  attr {
    key: "new_axis_mask"
    value {
      i: 0
    }
  }
  attr {
    key: "shrink_axis_mask"
    value {
      i: 1
    }
  }
}
node {
  name: "Preprocessor/map/while/ResizeImage/stack_1"
  op: "Const"
  input: "^Preprocessor/map/while/Identity"
  attr {
    key: "dtype"
    value {
      type: DT_INT32
    }
  }
  attr {
    key: "value"
    value {
      tensor {
        dtype: DT_INT32
        tensor_shape {
          dim {
            size: 3
          }
        }
        tensor_content: ",\001\000\000,\001\000\000\003\000\000\000"
      }
    }
  }
}
node {
  name: "Preprocessor/map/while/TensorArrayWrite/TensorArrayWriteV3"
  op: "TensorArrayWriteV3"
  input: "Preprocessor/map/while/TensorArrayWrite/TensorArrayWriteV3/Enter"
  input: "Preprocessor/map/while/Identity_1"
  input: "Preprocessor/map/while/ResizeImage/resize/Squeeze"
  input: "Preprocessor/map/while/Identity_2"
  attr {
    key: "T"
    value {
      type: DT_FLOAT
    }
  }
  attr {
    key: "_class"
    value {
      list {
        s: "loc:@Preprocessor/map/while/ResizeImage/resize/Squeeze"
      }
    }
  }
}
node {
  name: "Preprocessor/map/while/TensorArrayWrite/TensorArrayWriteV3/Enter"
  op: "Enter"
  input: "Preprocessor/map/TensorArray_1"
  attr {
    key: "T"
    value {
      type: DT_RESOURCE
    }
  }
  attr {
    key: "_class"
    value {
      list {
        s: "loc:@Preprocessor/map/while/ResizeImage/resize/Squeeze"
      }
    }
  }
  attr {
    key: "frame_name"
    value {
      s: "Preprocessor/map/while/while_context"
    }
  }
  attr {
    key: "is_constant"
    value {
      b: true
    }
  }
  attr {
    key: "parallel_iterations"
    value {
      i: 32
    }
  }
}
node {
  name: "Preprocessor/map/while/TensorArrayWrite_1/TensorArrayWriteV3"
  op: "TensorArrayWriteV3"
  input: "Preprocessor/map/while/TensorArrayWrite_1/TensorArrayWriteV3/Enter"
  input: "Preprocessor/map/while/Identity_1"
  input: "Preprocessor/map/while/ResizeImage/stack_1"
  input: "Preprocessor/map/while/Identity_3"
  attr {
    key: "T"
    value {
      type: DT_INT32
    }
  }
  attr {
    key: "_class"
    value {
      list {
        s: "loc:@Preprocessor/map/while/ResizeImage/stack_1"
      }
    }
  }
}
node {
  name: "Preprocessor/map/while/TensorArrayWrite_1/TensorArrayWriteV3/Enter"
  op: "Enter"
  input: "Preprocessor/map/TensorArray_2"
  attr {
    key: "T"
    value {
      type: DT_RESOURCE
    }
  }
  attr {
    key: "_class"
    value {
      list {
        s: "loc:@Preprocessor/map/while/ResizeImage/stack_1"
      }
    }
  }
  attr {
    key: "frame_name"
    value {
      s: "Preprocessor/map/while/while_context"
    }
  }
  attr {
    key: "is_constant"
    value {
      b: true
    }
  }
  attr {
    key: "parallel_iterations"
    value {
      i: 32
    }
  }
}
node {
  name: "Preprocessor/map/while/add_1/y"
  op: "Const"
  input: "^Preprocessor/map/while/Identity"
  attr {
    key: "dtype"
    value {
      type: DT_INT32
    }
  }
  attr {
    key: "value"
    value {
      tensor {
        dtype: DT_INT32
        tensor_shape {
        }
        int_val: 1
      }
    }
  }
}
node {
  name: "Preprocessor/map/while/add_1"
  op: "Add"
  input: "Preprocessor/map/while/Identity_1"
  input: "Preprocessor/map/while/add_1/y"
  attr {
    key: "T"
    value {
      type: DT_INT32
    }
  }
}
node {
  name: "Preprocessor/map/while/NextIteration"
  op: "NextIteration"
  input: "Preprocessor/map/while/add"
  attr {
    key: "T"
    value {
      type: DT_INT32
    }
  }
}
node {
  name: "Preprocessor/map/while/NextIteration_1"
  op: "NextIteration"
  input: "Preprocessor/map/while/add_1"
  attr {
    key: "T"
    value {
      type: DT_INT32
    }
  }
}
node {
  name: "Preprocessor/map/while/NextIteration_2"
  op: "NextIteration"
  input: "Preprocessor/map/while/TensorArrayWrite/TensorArrayWriteV3"
  attr {
    key: "T"
    value {
      type: DT_FLOAT
    }
  }
}
node {
  name: "Preprocessor/map/while/NextIteration_3"
  op: "NextIteration"
  input: "Preprocessor/map/while/TensorArrayWrite_1/TensorArrayWriteV3"
  attr {
    key: "T"
    value {
      type: DT_FLOAT
    }
  }
}
node {
  name: "Preprocessor/map/while/Exit"
  op: "Exit"
  input: "Preprocessor/map/while/Switch"
  attr {
    key: "T"
    value {
      type: DT_INT32
    }
  }
}
node {
  name: "Preprocessor/map/while/Exit_1"
  op: "Exit"
  input: "Preprocessor/map/while/Switch_1"
  attr {
    key: "T"
    value {
      type: DT_INT32
    }
  }
}
node {
  name: "Preprocessor/map/while/Exit_2"
  op: "Exit"
  input: "Preprocessor/map/while/Switch_2"
  attr {
    key: "T"
    value {
      type: DT_FLOAT
    }
  }
}
node {
  name: "Preprocessor/map/while/Exit_3"
  op: "Exit"
  input: "Preprocessor/map/while/Switch_3"
  attr {
    key: "T"
    value {
      type: DT_FLOAT
    }
  }
}
node {
  name: "Preprocessor/map/TensorArrayStack/TensorArraySizeV3"
  op: "TensorArraySizeV3"
  input: "Preprocessor/map/TensorArray_1"
  input: "Preprocessor/map/while/Exit_2"
  attr {
    key: "_class"
    value {
      list {
        s: "loc:@Preprocessor/map/TensorArray_1"
      }
    }
  }
}
node {
  name: "Preprocessor/map/TensorArrayStack/range/start"
  op: "Const"
  attr {
    key: "_class"
    value {
      list {
        s: "loc:@Preprocessor/map/TensorArray_1"
      }
    }
  }
  attr {
    key: "dtype"
    value {
      type: DT_INT32
    }
  }
  attr {
    key: "value"
    value {
      tensor {
        dtype: DT_INT32
        tensor_shape {
        }
        int_val: 0
      }
    }
  }
}
node {
  name: "Preprocessor/map/TensorArrayStack/range/delta"
  op: "Const"
  attr {
    key: "_class"
    value {
      list {
        s: "loc:@Preprocessor/map/TensorArray_1"
      }
    }
  }
  attr {
    key: "dtype"
    value {
      type: DT_INT32
    }
  }
  attr {
    key: "value"
    value {
      tensor {
        dtype: DT_INT32
        tensor_shape {
        }
        int_val: 1
      }
    }
  }
}
node {
  name: "Preprocessor/map/TensorArrayStack/range"
  op: "Range"
  input: "Preprocessor/map/TensorArrayStack/range/start"
  input: "Preprocessor/map/TensorArrayStack/TensorArraySizeV3"
  input: "Preprocessor/map/TensorArrayStack/range/delta"
  attr {
    key: "Tidx"
    value {
      type: DT_INT32
    }
  }
  attr {
    key: "_class"
    value {
      list {
        s: "loc:@Preprocessor/map/TensorArray_1"
      }
    }
  }
}
node {
  name: "Preprocessor/map/TensorArrayStack/TensorArrayGatherV3"
  op: "TensorArrayGatherV3"
  input: "Preprocessor/map/TensorArray_1"
  input: "Preprocessor/map/TensorArrayStack/range"
  input: "Preprocessor/map/while/Exit_2"
  attr {
    key: "_class"
    value {
      list {
        s: "loc:@Preprocessor/map/TensorArray_1"
      }
    }
  }
  attr {
    key: "dtype"
    value {
      type: DT_FLOAT
    }
  }
  attr {
    key: "element_shape"
    value {
      shape {
        dim {
          size: 300
        }
        dim {
          size: 300
        }
        dim {
          size: 3
        }
      }
    }
  }
}
node {
  name: "Preprocessor/map/TensorArrayStack_1/TensorArraySizeV3"
  op: "TensorArraySizeV3"
  input: "Preprocessor/map/TensorArray_2"
  input: "Preprocessor/map/while/Exit_3"
  attr {
    key: "_class"
    value {
      list {
        s: "loc:@Preprocessor/map/TensorArray_2"
      }
    }
  }
}
node {
  name: "Preprocessor/map/TensorArrayStack_1/range/start"
  op: "Const"
  attr {
    key: "_class"
    value {
      list {
        s: "loc:@Preprocessor/map/TensorArray_2"
      }
    }
  }
  attr {
    key: "dtype"
    value {
      type: DT_INT32
    }
  }
  attr {
    key: "value"
    value {
      tensor {
        dtype: DT_INT32
        tensor_shape {
        }
        int_val: 0
      }
    }
  }
}
node {
  name: "Preprocessor/map/TensorArrayStack_1/range/delta"
  op: "Const"
  attr {
    key: "_class"
    value {
      list {
        s: "loc:@Preprocessor/map/TensorArray_2"
      }
    }
  }
  attr {
    key: "dtype"
    value {
      type: DT_INT32
    }
  }
  attr {
    key: "value"
    value {
      tensor {
        dtype: DT_INT32
        tensor_shape {
        }
        int_val: 1
      }
    }
  }
}
node {
  name: "Preprocessor/map/TensorArrayStack_1/range"
  op: "Range"
  input: "Preprocessor/map/TensorArrayStack_1/range/start"
  input: "Preprocessor/map/TensorArrayStack_1/TensorArraySizeV3"
  input: "Preprocessor/map/TensorArrayStack_1/range/delta"
  attr {
    key: "Tidx"
    value {
      type: DT_INT32
    }
  }
  attr {
    key: "_class"
    value {
      list {
        s: "loc:@Preprocessor/map/TensorArray_2"
      }
    }
  }
}
node {
  name: "Preprocessor/map/TensorArrayStack_1/TensorArrayGatherV3"
  op: "TensorArrayGatherV3"
  input: "Preprocessor/map/TensorArray_2"
  input: "Preprocessor/map/TensorArrayStack_1/range"
  input: "Preprocessor/map/while/Exit_3"
  attr {
    key: "_class"
    value {
      list {
        s: "loc:@Preprocessor/map/TensorArray_2"
      }
    }
  }
  attr {
    key: "dtype"
    value {
      type: DT_INT32
    }
  }
  attr {
    key: "element_shape"
    value {
      shape {
        dim {
          size: 3
        }
      }
    }
  }
}
node {
  name: "Preprocessor/mul/x"
  op: "Const"
  attr {
    key: "dtype"
    value {
      type: DT_FLOAT
    }
  }
  attr {
    key: "value"
    value {
      tensor {
        dtype: DT_FLOAT
        tensor_shape {
        }
        float_val: 0.007843137718737125
      }
    }
  }
}
node {
  name: "Preprocessor/mul"
  op: "Mul"
  input: "Preprocessor/mul/x"
  input: "Preprocessor/map/TensorArrayStack/TensorArrayGatherV3"
  attr {
    key: "T"
    value {
      type: DT_FLOAT
    }
  }
}
node {
  name: "Preprocessor/sub/y"
  op: "Const"
  attr {
    key: "dtype"
    value {
      type: DT_FLOAT
    }
  }
  attr {
    key: "value"
    value {
      tensor {
        dtype: DT_FLOAT
        tensor_shape {
        }
        float_val: 1.0
      }
    }
  }
}
node {
  name: "Preprocessor/sub"
  op: "Sub"
  input: "Preprocessor/mul"
  input: "Preprocessor/sub/y"
  attr {
    key: "T"
    value {
      type: DT_FLOAT
    }
  }
}
node {
  name: "FeatureExtractor/MobilenetV2/MobilenetV2/input"
  op: "Identity"
  input: "Preprocessor/sub"
  attr {
    key: "T"
    value {
      type: DT_FLOAT
    }
  }
}
node {
  name: "FeatureExtractor/MobilenetV2/strided_slice/stack"
  op: "Const"
  attr {
    key: "dtype"
    value {
      type: DT_INT32
    }
  }
  attr {
    key: "value"
    value {
      tensor {
        dtype: DT_INT32
        tensor_shape {
          dim {
            size: 4
          }
        }
        tensor_content: "\000\000\000\000\000\000\000\000\000\000\000\000\000\000\000\000"
      }
    }
  }
}
node {
  name: "FeatureExtractor/MobilenetV2/strided_slice/stack_1"
  op: "Const"
  attr {
    key: "dtype"
    value {
      type: DT_INT32
    }
  }
  attr {
    key: "value"
    value {
      tensor {
        dtype: DT_INT32
        tensor_shape {
          dim {
            size: 4
          }
        }
        tensor_content: "\000\000\000\000\000\000\000\000\000\000\000\000\001\000\000\000"
      }
    }
  }
}
node {
  name: "FeatureExtractor/MobilenetV2/strided_slice/stack_2"
  op: "Const"
  attr {
    key: "dtype"
    value {
      type: DT_INT32
    }
  }
  attr {
    key: "value"
    value {
      tensor {
        dtype: DT_INT32
        tensor_shape {
          dim {
            size: 4
          }
        }
        tensor_content: "\001\000\000\000\001\000\000\000\001\000\000\000\001\000\000\000"
      }
    }
  }
}
node {
  name: "FeatureExtractor/MobilenetV2/strided_slice"
  op: "StridedSlice"
  input: "FeatureExtractor/MobilenetV2/MobilenetV2/input"
  input: "FeatureExtractor/MobilenetV2/strided_slice/stack"
  input: "FeatureExtractor/MobilenetV2/strided_slice/stack_1"
  input: "FeatureExtractor/MobilenetV2/strided_slice/stack_2"
  attr {
    key: "Index"
    value {
      type: DT_INT32
    }
  }
  attr {
    key: "T"
    value {
      type: DT_FLOAT
    }
  }
  attr {
    key: "begin_mask"
    value {
      i: 7
    }
  }
  attr {
    key: "ellipsis_mask"
    value {
      i: 0
    }
  }
  attr {
    key: "end_mask"
    value {
      i: 7
    }
  }
  attr {
    key: "new_axis_mask"
    value {
      i: 0
    }
  }
  attr {
    key: "shrink_axis_mask"
    value {
      i: 8
    }
  }
}
node {
  name: "FeatureExtractor/MobilenetV2/strided_slice_1/stack"
  op: "Const"
  attr {
    key: "dtype"
    value {
      type: DT_INT32
    }
  }
  attr {
    key: "value"
    value {
      tensor {
        dtype: DT_INT32
        tensor_shape {
          dim {
            size: 4
          }
        }
        tensor_content: "\000\000\000\000\000\000\000\000\000\000\000\000\002\000\000\000"
      }
    }
  }
}
node {
  name: "FeatureExtractor/MobilenetV2/strided_slice_1/stack_1"
  op: "Const"
  attr {
    key: "dtype"
    value {
      type: DT_INT32
    }
  }
  attr {
    key: "value"
    value {
      tensor {
        dtype: DT_INT32
        tensor_shape {
          dim {
            size: 4
          }
        }
        tensor_content: "\000\000\000\000\000\000\000\000\000\000\000\000\003\000\000\000"
      }
    }
  }
}
node {
  name: "FeatureExtractor/MobilenetV2/strided_slice_1/stack_2"
  op: "Const"
  attr {
    key: "dtype"
    value {
      type: DT_INT32
    }
  }
  attr {
    key: "value"
    value {
      tensor {
        dtype: DT_INT32
        tensor_shape {
          dim {
            size: 4
          }
        }
        tensor_content: "\001\000\000\000\001\000\000\000\001\000\000\000\001\000\000\000"
      }
    }
  }
}
node {
  name: "FeatureExtractor/MobilenetV2/strided_slice_1"
  op: "StridedSlice"
  input: "FeatureExtractor/MobilenetV2/MobilenetV2/input"
  input: "FeatureExtractor/MobilenetV2/strided_slice_1/stack"
  input: "FeatureExtractor/MobilenetV2/strided_slice_1/stack_1"
  input: "FeatureExtractor/MobilenetV2/strided_slice_1/stack_2"
  attr {
    key: "Index"
    value {
      type: DT_INT32
    }
  }
  attr {
    key: "T"
    value {
      type: DT_FLOAT
    }
  }
  attr {
    key: "begin_mask"
    value {
      i: 7
    }
  }
  attr {
    key: "ellipsis_mask"
    value {
      i: 0
    }
  }
  attr {
    key: "end_mask"
    value {
      i: 7
    }
  }
  attr {
    key: "new_axis_mask"
    value {
      i: 0
    }
  }
  attr {
    key: "shrink_axis_mask"
    value {
      i: 8
    }
  }
}
node {
  name: "FeatureExtractor/MobilenetV2/stack"
  op: "Pack"
  input: "FeatureExtractor/MobilenetV2/strided_slice"
  input: "FeatureExtractor/MobilenetV2/strided_slice_1"
  attr {
    key: "N"
    value {
      i: 2
    }
  }
  attr {
    key: "T"
    value {
      type: DT_FLOAT
    }
  }
  attr {
    key: "axis"
    value {
      i: 3
    }
  }
}
node {
  name: "FeatureExtractor/MobilenetV2/Conv/weights/Initializer/truncated_normal/shape"
  op: "Const"
  attr {
    key: "_class"
    value {
      list {
        s: "loc:@FeatureExtractor/MobilenetV2/Conv/weights"
      }
    }
  }
  attr {
    key: "dtype"
    value {
      type: DT_INT32
    }
  }
  attr {
    key: "value"
    value {
      tensor {
        dtype: DT_INT32
        tensor_shape {
          dim {
            size: 4
          }
        }
        tensor_content: "\003\000\000\000\003\000\000\000\003\000\000\000 \000\000\000"
      }
    }
  }
}
node {
  name: "FeatureExtractor/MobilenetV2/Conv/weights/Initializer/truncated_normal/mean"
  op: "Const"
  attr {
    key: "_class"
    value {
      list {
        s: "loc:@FeatureExtractor/MobilenetV2/Conv/weights"
      }
    }
  }
  attr {
    key: "dtype"
    value {
      type: DT_FLOAT
    }
  }
  attr {
    key: "value"
    value {
      tensor {
        dtype: DT_FLOAT
        tensor_shape {
        }
        float_val: 0.0
      }
    }
  }
}
node {
  name: "FeatureExtractor/MobilenetV2/Conv/weights/Initializer/truncated_normal/stddev"
  op: "Const"
  attr {
    key: "_class"
    value {
      list {
        s: "loc:@FeatureExtractor/MobilenetV2/Conv/weights"
      }
    }
  }
  attr {
    key: "dtype"
    value {
      type: DT_FLOAT
    }
  }
  attr {
    key: "value"
    value {
      tensor {
        dtype: DT_FLOAT
        tensor_shape {
        }
        float_val: 0.09000000357627869
      }
    }
  }
}
node {
  name: "FeatureExtractor/MobilenetV2/Conv/weights/Initializer/truncated_normal/TruncatedNormal"
  op: "TruncatedNormal"
  input: "FeatureExtractor/MobilenetV2/Conv/weights/Initializer/truncated_normal/shape"
  attr {
    key: "T"
    value {
      type: DT_INT32
    }
  }
  attr {
    key: "_class"
    value {
      list {
        s: "loc:@FeatureExtractor/MobilenetV2/Conv/weights"
      }
    }
  }
  attr {
    key: "dtype"
    value {
      type: DT_FLOAT
    }
  }
  attr {
    key: "seed"
    value {
      i: 0
    }
  }
  attr {
    key: "seed2"
    value {
      i: 0
    }
  }
}
node {
  name: "FeatureExtractor/MobilenetV2/Conv/weights/Initializer/truncated_normal/mul"
  op: "Mul"
  input: "FeatureExtractor/MobilenetV2/Conv/weights/Initializer/truncated_normal/TruncatedNormal"
  input: "FeatureExtractor/MobilenetV2/Conv/weights/Initializer/truncated_normal/stddev"
  attr {
    key: "T"
    value {
      type: DT_FLOAT
    }
  }
  attr {
    key: "_class"
    value {
      list {
        s: "loc:@FeatureExtractor/MobilenetV2/Conv/weights"
      }
    }
  }
}
node {
  name: "FeatureExtractor/MobilenetV2/Conv/weights/Initializer/truncated_normal"
  op: "Add"
  input: "FeatureExtractor/MobilenetV2/Conv/weights/Initializer/truncated_normal/mul"
  input: "FeatureExtractor/MobilenetV2/Conv/weights/Initializer/truncated_normal/mean"
  attr {
    key: "T"
    value {
      type: DT_FLOAT
    }
  }
  attr {
    key: "_class"
    value {
      list {
        s: "loc:@FeatureExtractor/MobilenetV2/Conv/weights"
      }
    }
  }
}
node {
  name: "FeatureExtractor/MobilenetV2/Conv/weights"
  op: "VariableV2"
  attr {
    key: "_class"
    value {
      list {
        s: "loc:@FeatureExtractor/MobilenetV2/Conv/weights"
      }
    }
  }
  attr {
    key: "container"
    value {
      s: ""
    }
  }
  attr {
    key: "dtype"
    value {
      type: DT_FLOAT
    }
  }
  attr {
    key: "shape"
    value {
      shape {
        dim {
          size: 3
        }
        dim {
          size: 3
        }
        dim {
          size: 3
        }
        dim {
          size: 32
        }
      }
    }
  }
  attr {
    key: "shared_name"
    value {
      s: ""
    }
  }
}
node {
  name: "FeatureExtractor/MobilenetV2/Conv/weights/Assign"
  op: "Assign"
  input: "FeatureExtractor/MobilenetV2/Conv/weights"
  input: "FeatureExtractor/MobilenetV2/Conv/weights/Initializer/truncated_normal"
  attr {
    key: "T"
    value {
      type: DT_FLOAT
    }
  }
  attr {
    key: "_class"
    value {
      list {
        s: "loc:@FeatureExtractor/MobilenetV2/Conv/weights"
      }
    }
  }
  attr {
    key: "use_locking"
    value {
      b: true
    }
  }
  attr {
    key: "validate_shape"
    value {
      b: true
    }
  }
}
node {
  name: "FeatureExtractor/MobilenetV2/Conv/weights/read"
  op: "Identity"
  input: "FeatureExtractor/MobilenetV2/Conv/weights"
  attr {
    key: "T"
    value {
      type: DT_FLOAT
    }
  }
  attr {
    key: "_class"
    value {
      list {
        s: "loc:@FeatureExtractor/MobilenetV2/Conv/weights"
      }
    }
  }
}
node {
  name: "FeatureExtractor/MobilenetV2/Conv/kernel/Regularizer/l2_regularizer/scale"
  op: "Const"
  attr {
    key: "dtype"
    value {
      type: DT_FLOAT
    }
  }
  attr {
    key: "value"
    value {
      tensor {
        dtype: DT_FLOAT
        tensor_shape {
        }
        float_val: 3.9999998989515007e-05
      }
    }
  }
}
node {
  name: "FeatureExtractor/MobilenetV2/Conv/kernel/Regularizer/l2_regularizer/L2Loss"
  op: "L2Loss"
  input: "FeatureExtractor/MobilenetV2/Conv/weights/read"
  attr {
    key: "T"
    value {
      type: DT_FLOAT
    }
  }
}
node {
  name: "FeatureExtractor/MobilenetV2/Conv/kernel/Regularizer/l2_regularizer"
  op: "Mul"
  input: "FeatureExtractor/MobilenetV2/Conv/kernel/Regularizer/l2_regularizer/scale"
  input: "FeatureExtractor/MobilenetV2/Conv/kernel/Regularizer/l2_regularizer/L2Loss"
  attr {
    key: "T"
    value {
      type: DT_FLOAT
    }
  }
}
node {
  name: "FeatureExtractor/MobilenetV2/Conv/dilation_rate"
  op: "Const"
  attr {
    key: "dtype"
    value {
      type: DT_INT32
    }
  }
  attr {
    key: "value"
    value {
      tensor {
        dtype: DT_INT32
        tensor_shape {
          dim {
            size: 2
          }
        }
        tensor_content: "\001\000\000\000\001\000\000\000"
      }
    }
  }
}
node {
  name: "FeatureExtractor/MobilenetV2/Conv/Conv2D"
  op: "Conv2D"
  input: "FeatureExtractor/MobilenetV2/MobilenetV2/input"
  input: "FeatureExtractor/MobilenetV2/Conv/weights/read"
  attr {
    key: "T"
    value {
      type: DT_FLOAT
    }
  }
  attr {
    key: "data_format"
    value {
      s: "NHWC"
    }
  }
  attr {
    key: "dilations"
    value {
      list {
        i: 1
        i: 1
        i: 1
        i: 1
      }
    }
  }
  attr {
    key: "explicit_paddings"
    value {
      list {
      }
    }
  }
  attr {
    key: "padding"
    value {
      s: "SAME"
    }
  }
  attr {
    key: "strides"
    value {
      list {
        i: 1
        i: 2
        i: 2
        i: 1
      }
    }
  }
  attr {
    key: "use_cudnn_on_gpu"
    value {
      b: true
    }
  }
}
node {
  name: "FeatureExtractor/MobilenetV2/Conv/BatchNorm/gamma/Initializer/ones"
  op: "Const"
  attr {
    key: "_class"
    value {
      list {
        s: "loc:@FeatureExtractor/MobilenetV2/Conv/BatchNorm/gamma"
      }
    }
  }
  attr {
    key: "dtype"
    value {
      type: DT_FLOAT
    }
  }
  attr {
    key: "value"
    value {
      tensor {
        dtype: DT_FLOAT
        tensor_shape {
          dim {
            size: 32
          }
        }
        float_val: 1.0
      }
    }
  }
}
node {
  name: "FeatureExtractor/MobilenetV2/Conv/BatchNorm/gamma"
  op: "VariableV2"
  attr {
    key: "_class"
    value {
      list {
        s: "loc:@FeatureExtractor/MobilenetV2/Conv/BatchNorm/gamma"
      }
    }
  }
  attr {
    key: "container"
    value {
      s: ""
    }
  }
  attr {
    key: "dtype"
    value {
      type: DT_FLOAT
    }
  }
  attr {
    key: "shape"
    value {
      shape {
        dim {
          size: 32
        }
      }
    }
  }
  attr {
    key: "shared_name"
    value {
      s: ""
    }
  }
}
node {
  name: "FeatureExtractor/MobilenetV2/Conv/BatchNorm/gamma/Assign"
  op: "Assign"
  input: "FeatureExtractor/MobilenetV2/Conv/BatchNorm/gamma"
  input: "FeatureExtractor/MobilenetV2/Conv/BatchNorm/gamma/Initializer/ones"
  attr {
    key: "T"
    value {
      type: DT_FLOAT
    }
  }
  attr {
    key: "_class"
    value {
      list {
        s: "loc:@FeatureExtractor/MobilenetV2/Conv/BatchNorm/gamma"
      }
    }
  }
  attr {
    key: "use_locking"
    value {
      b: true
    }
  }
  attr {
    key: "validate_shape"
    value {
      b: true
    }
  }
}
node {
  name: "FeatureExtractor/MobilenetV2/Conv/BatchNorm/gamma/read"
  op: "Identity"
  input: "FeatureExtractor/MobilenetV2/Conv/BatchNorm/gamma"
  attr {
    key: "T"
    value {
      type: DT_FLOAT
    }
  }
  attr {
    key: "_class"
    value {
      list {
        s: "loc:@FeatureExtractor/MobilenetV2/Conv/BatchNorm/gamma"
      }
    }
  }
}
node {
  name: "FeatureExtractor/MobilenetV2/Conv/BatchNorm/beta/Initializer/zeros"
  op: "Const"
  attr {
    key: "_class"
    value {
      list {
        s: "loc:@FeatureExtractor/MobilenetV2/Conv/BatchNorm/beta"
      }
    }
  }
  attr {
    key: "dtype"
    value {
      type: DT_FLOAT
    }
  }
  attr {
    key: "value"
    value {
      tensor {
        dtype: DT_FLOAT
        tensor_shape {
          dim {
            size: 32
          }
        }
        float_val: 0.0
      }
    }
  }
}
node {
  name: "FeatureExtractor/MobilenetV2/Conv/BatchNorm/beta"
  op: "VariableV2"
  attr {
    key: "_class"
    value {
      list {
        s: "loc:@FeatureExtractor/MobilenetV2/Conv/BatchNorm/beta"
      }
    }
  }
  attr {
    key: "container"
    value {
      s: ""
    }
  }
  attr {
    key: "dtype"
    value {
      type: DT_FLOAT
    }
  }
  attr {
    key: "shape"
    value {
      shape {
        dim {
          size: 32
        }
      }
    }
  }
  attr {
    key: "shared_name"
    value {
      s: ""
    }
  }
}
node {
  name: "FeatureExtractor/MobilenetV2/Conv/BatchNorm/beta/Assign"
  op: "Assign"
  input: "FeatureExtractor/MobilenetV2/Conv/BatchNorm/beta"
  input: "FeatureExtractor/MobilenetV2/Conv/BatchNorm/beta/Initializer/zeros"
  attr {
    key: "T"
    value {
      type: DT_FLOAT
    }
  }
  attr {
    key: "_class"
    value {
      list {
        s: "loc:@FeatureExtractor/MobilenetV2/Conv/BatchNorm/beta"
      }
    }
  }
  attr {
    key: "use_locking"
    value {
      b: true
    }
  }
  attr {
    key: "validate_shape"
    value {
      b: true
    }
  }
}
node {
  name: "FeatureExtractor/MobilenetV2/Conv/BatchNorm/beta/read"
  op: "Identity"
  input: "FeatureExtractor/MobilenetV2/Conv/BatchNorm/beta"
  attr {
    key: "T"
    value {
      type: DT_FLOAT
    }
  }
  attr {
    key: "_class"
    value {
      list {
        s: "loc:@FeatureExtractor/MobilenetV2/Conv/BatchNorm/beta"
      }
    }
  }
}
node {
  name: "FeatureExtractor/MobilenetV2/Conv/BatchNorm/moving_mean/Initializer/zeros"
  op: "Const"
  attr {
    key: "_class"
    value {
      list {
        s: "loc:@FeatureExtractor/MobilenetV2/Conv/BatchNorm/moving_mean"
      }
    }
  }
  attr {
    key: "dtype"
    value {
      type: DT_FLOAT
    }
  }
  attr {
    key: "value"
    value {
      tensor {
        dtype: DT_FLOAT
        tensor_shape {
          dim {
            size: 32
          }
        }
        float_val: 0.0
      }
    }
  }
}
node {
  name: "FeatureExtractor/MobilenetV2/Conv/BatchNorm/moving_mean"
  op: "VariableV2"
  attr {
    key: "_class"
    value {
      list {
        s: "loc:@FeatureExtractor/MobilenetV2/Conv/BatchNorm/moving_mean"
      }
    }
  }
  attr {
    key: "container"
    value {
      s: ""
    }
  }
  attr {
    key: "dtype"
    value {
      type: DT_FLOAT
    }
  }
  attr {
    key: "shape"
    value {
      shape {
        dim {
          size: 32
        }
      }
    }
  }
  attr {
    key: "shared_name"
    value {
      s: ""
    }
  }
}
node {
  name: "FeatureExtractor/MobilenetV2/Conv/BatchNorm/moving_mean/Assign"
  op: "Assign"
  input: "FeatureExtractor/MobilenetV2/Conv/BatchNorm/moving_mean"
  input: "FeatureExtractor/MobilenetV2/Conv/BatchNorm/moving_mean/Initializer/zeros"
  attr {
    key: "T"
    value {
      type: DT_FLOAT
    }
  }
  attr {
    key: "_class"
    value {
      list {
        s: "loc:@FeatureExtractor/MobilenetV2/Conv/BatchNorm/moving_mean"
      }
    }
  }
  attr {
    key: "use_locking"
    value {
      b: true
    }
  }
  attr {
    key: "validate_shape"
    value {
      b: true
    }
  }
}
node {
  name: "FeatureExtractor/MobilenetV2/Conv/BatchNorm/moving_mean/read"
  op: "Identity"
  input: "FeatureExtractor/MobilenetV2/Conv/BatchNorm/moving_mean"
  attr {
    key: "T"
    value {
      type: DT_FLOAT
    }
  }
  attr {
    key: "_class"
    value {
      list {
        s: "loc:@FeatureExtractor/MobilenetV2/Conv/BatchNorm/moving_mean"
      }
    }
  }
}
node {
  name: "FeatureExtractor/MobilenetV2/Conv/BatchNorm/moving_variance/Initializer/ones"
  op: "Const"
  attr {
    key: "_class"
    value {
      list {
        s: "loc:@FeatureExtractor/MobilenetV2/Conv/BatchNorm/moving_variance"
      }
    }
  }
  attr {
    key: "dtype"
    value {
      type: DT_FLOAT
    }
  }
  attr {
    key: "value"
    value {
      tensor {
        dtype: DT_FLOAT
        tensor_shape {
          dim {
            size: 32
          }
        }
        float_val: 1.0
      }
    }
  }
}
node {
  name: "FeatureExtractor/MobilenetV2/Conv/BatchNorm/moving_variance"
  op: "VariableV2"
  attr {
    key: "_class"
    value {
      list {
        s: "loc:@FeatureExtractor/MobilenetV2/Conv/BatchNorm/moving_variance"
      }
    }
  }
  attr {
    key: "container"
    value {
      s: ""
    }
  }
  attr {
    key: "dtype"
    value {
      type: DT_FLOAT
    }
  }
  attr {
    key: "shape"
    value {
      shape {
        dim {
          size: 32
        }
      }
    }
  }
  attr {
    key: "shared_name"
    value {
      s: ""
    }
  }
}
node {
  name: "FeatureExtractor/MobilenetV2/Conv/BatchNorm/moving_variance/Assign"
  op: "Assign"
  input: "FeatureExtractor/MobilenetV2/Conv/BatchNorm/moving_variance"
  input: "FeatureExtractor/MobilenetV2/Conv/BatchNorm/moving_variance/Initializer/ones"
  attr {
    key: "T"
    value {
      type: DT_FLOAT
    }
  }
  attr {
    key: "_class"
    value {
      list {
        s: "loc:@FeatureExtractor/MobilenetV2/Conv/BatchNorm/moving_variance"
      }
    }
  }
  attr {
    key: "use_locking"
    value {
      b: true
    }
  }
  attr {
    key: "validate_shape"
    value {
      b: true
    }
  }
}
node {
  name: "FeatureExtractor/MobilenetV2/Conv/BatchNorm/moving_variance/read"
  op: "Identity"
  input: "FeatureExtractor/MobilenetV2/Conv/BatchNorm/moving_variance"
  attr {
    key: "T"
    value {
      type: DT_FLOAT
    }
  }
  attr {
    key: "_class"
    value {
      list {
        s: "loc:@FeatureExtractor/MobilenetV2/Conv/BatchNorm/moving_variance"
      }
    }
  }
}
node {
  name: "FeatureExtractor/MobilenetV2/Conv/BatchNorm/FusedBatchNorm"
  op: "FusedBatchNorm"
  input: "FeatureExtractor/MobilenetV2/Conv/Conv2D"
  input: "FeatureExtractor/MobilenetV2/Conv/BatchNorm/gamma/read"
  input: "FeatureExtractor/MobilenetV2/Conv/BatchNorm/beta/read"
  input: "FeatureExtractor/MobilenetV2/Conv/BatchNorm/moving_mean/read"
  input: "FeatureExtractor/MobilenetV2/Conv/BatchNorm/moving_variance/read"
  attr {
    key: "T"
    value {
      type: DT_FLOAT
    }
  }
  attr {
    key: "data_format"
    value {
      s: "NHWC"
    }
  }
  attr {
    key: "epsilon"
    value {
      f: 0.0010000000474974513
    }
  }
  attr {
    key: "is_training"
    value {
      b: false
    }
  }
}
node {
  name: "FeatureExtractor/MobilenetV2/Conv/BatchNorm/Const"
  op: "Const"
  attr {
    key: "dtype"
    value {
      type: DT_FLOAT
    }
  }
  attr {
    key: "value"
    value {
      tensor {
        dtype: DT_FLOAT
        tensor_shape {
        }
        float_val: 0.9997000098228455
      }
    }
  }
}
node {
  name: "FeatureExtractor/MobilenetV2/Conv/Relu6"
  op: "Relu6"
  input: "FeatureExtractor/MobilenetV2/Conv/BatchNorm/FusedBatchNorm"
  attr {
    key: "T"
    value {
      type: DT_FLOAT
    }
  }
}
node {
  name: "FeatureExtractor/MobilenetV2/expanded_conv/input"
  op: "Identity"
  input: "FeatureExtractor/MobilenetV2/Conv/Relu6"
  attr {
    key: "T"
    value {
      type: DT_FLOAT
    }
  }
}
node {
  name: "FeatureExtractor/MobilenetV2/expanded_conv/depthwise/depthwise_weights/Initializer/truncated_normal/shape"
  op: "Const"
  attr {
    key: "_class"
    value {
      list {
        s: "loc:@FeatureExtractor/MobilenetV2/expanded_conv/depthwise/depthwise_weights"
      }
    }
  }
  attr {
    key: "dtype"
    value {
      type: DT_INT32
    }
  }
  attr {
    key: "value"
    value {
      tensor {
        dtype: DT_INT32
        tensor_shape {
          dim {
            size: 4
          }
        }
        tensor_content: "\003\000\000\000\003\000\000\000 \000\000\000\001\000\000\000"
      }
    }
  }
}
node {
  name: "FeatureExtractor/MobilenetV2/expanded_conv/depthwise/depthwise_weights/Initializer/truncated_normal/mean"
  op: "Const"
  attr {
    key: "_class"
    value {
      list {
        s: "loc:@FeatureExtractor/MobilenetV2/expanded_conv/depthwise/depthwise_weights"
      }
    }
  }
  attr {
    key: "dtype"
    value {
      type: DT_FLOAT
    }
  }
  attr {
    key: "value"
    value {
      tensor {
        dtype: DT_FLOAT
        tensor_shape {
        }
        float_val: 0.0
      }
    }
  }
}
node {
  name: "FeatureExtractor/MobilenetV2/expanded_conv/depthwise/depthwise_weights/Initializer/truncated_normal/stddev"
  op: "Const"
  attr {
    key: "_class"
    value {
      list {
        s: "loc:@FeatureExtractor/MobilenetV2/expanded_conv/depthwise/depthwise_weights"
      }
    }
  }
  attr {
    key: "dtype"
    value {
      type: DT_FLOAT
    }
  }
  attr {
    key: "value"
    value {
      tensor {
        dtype: DT_FLOAT
        tensor_shape {
        }
        float_val: 0.09000000357627869
      }
    }
  }
}
node {
  name: "FeatureExtractor/MobilenetV2/expanded_conv/depthwise/depthwise_weights/Initializer/truncated_normal/TruncatedNormal"
  op: "TruncatedNormal"
  input: "FeatureExtractor/MobilenetV2/expanded_conv/depthwise/depthwise_weights/Initializer/truncated_normal/shape"
  attr {
    key: "T"
    value {
      type: DT_INT32
    }
  }
  attr {
    key: "_class"
    value {
      list {
        s: "loc:@FeatureExtractor/MobilenetV2/expanded_conv/depthwise/depthwise_weights"
      }
    }
  }
  attr {
    key: "dtype"
    value {
      type: DT_FLOAT
    }
  }
  attr {
    key: "seed"
    value {
      i: 0
    }
  }
  attr {
    key: "seed2"
    value {
      i: 0
    }
  }
}
node {
  name: "FeatureExtractor/MobilenetV2/expanded_conv/depthwise/depthwise_weights/Initializer/truncated_normal/mul"
  op: "Mul"
  input: "FeatureExtractor/MobilenetV2/expanded_conv/depthwise/depthwise_weights/Initializer/truncated_normal/TruncatedNormal"
  input: "FeatureExtractor/MobilenetV2/expanded_conv/depthwise/depthwise_weights/Initializer/truncated_normal/stddev"
  attr {
    key: "T"
    value {
      type: DT_FLOAT
    }
  }
  attr {
    key: "_class"
    value {
      list {
        s: "loc:@FeatureExtractor/MobilenetV2/expanded_conv/depthwise/depthwise_weights"
      }
    }
  }
}
node {
  name: "FeatureExtractor/MobilenetV2/expanded_conv/depthwise/depthwise_weights/Initializer/truncated_normal"
  op: "Add"
  input: "FeatureExtractor/MobilenetV2/expanded_conv/depthwise/depthwise_weights/Initializer/truncated_normal/mul"
  input: "FeatureExtractor/MobilenetV2/expanded_conv/depthwise/depthwise_weights/Initializer/truncated_normal/mean"
  attr {
    key: "T"
    value {
      type: DT_FLOAT
    }
  }
  attr {
    key: "_class"
    value {
      list {
        s: "loc:@FeatureExtractor/MobilenetV2/expanded_conv/depthwise/depthwise_weights"
      }
    }
  }
}
node {
  name: "FeatureExtractor/MobilenetV2/expanded_conv/depthwise/depthwise_weights"
  op: "VariableV2"
  attr {
    key: "_class"
    value {
      list {
        s: "loc:@FeatureExtractor/MobilenetV2/expanded_conv/depthwise/depthwise_weights"
      }
    }
  }
  attr {
    key: "container"
    value {
      s: ""
    }
  }
  attr {
    key: "dtype"
    value {
      type: DT_FLOAT
    }
  }
  attr {
    key: "shape"
    value {
      shape {
        dim {
          size: 3
        }
        dim {
          size: 3
        }
        dim {
          size: 32
        }
        dim {
          size: 1
        }
      }
    }
  }
  attr {
    key: "shared_name"
    value {
      s: ""
    }
  }
}
node {
  name: "FeatureExtractor/MobilenetV2/expanded_conv/depthwise/depthwise_weights/Assign"
  op: "Assign"
  input: "FeatureExtractor/MobilenetV2/expanded_conv/depthwise/depthwise_weights"
  input: "FeatureExtractor/MobilenetV2/expanded_conv/depthwise/depthwise_weights/Initializer/truncated_normal"
  attr {
    key: "T"
    value {
      type: DT_FLOAT
    }
  }
  attr {
    key: "_class"
    value {
      list {
        s: "loc:@FeatureExtractor/MobilenetV2/expanded_conv/depthwise/depthwise_weights"
      }
    }
  }
  attr {
    key: "use_locking"
    value {
      b: true
    }
  }
  attr {
    key: "validate_shape"
    value {
      b: true
    }
  }
}
node {
  name: "FeatureExtractor/MobilenetV2/expanded_conv/depthwise/depthwise_weights/read"
  op: "Identity"
  input: "FeatureExtractor/MobilenetV2/expanded_conv/depthwise/depthwise_weights"
  attr {
    key: "T"
    value {
      type: DT_FLOAT
    }
  }
  attr {
    key: "_class"
    value {
      list {
        s: "loc:@FeatureExtractor/MobilenetV2/expanded_conv/depthwise/depthwise_weights"
      }
    }
  }
}
node {
  name: "FeatureExtractor/MobilenetV2/expanded_conv/depthwise/depthwise/Shape"
  op: "Const"
  attr {
    key: "dtype"
    value {
      type: DT_INT32
    }
  }
  attr {
    key: "value"
    value {
      tensor {
        dtype: DT_INT32
        tensor_shape {
          dim {
            size: 4
          }
        }
        tensor_content: "\003\000\000\000\003\000\000\000 \000\000\000\001\000\000\000"
      }
    }
  }
}
node {
  name: "FeatureExtractor/MobilenetV2/expanded_conv/depthwise/depthwise/dilation_rate"
  op: "Const"
  attr {
    key: "dtype"
    value {
      type: DT_INT32
    }
  }
  attr {
    key: "value"
    value {
      tensor {
        dtype: DT_INT32
        tensor_shape {
          dim {
            size: 2
          }
        }
        tensor_content: "\001\000\000\000\001\000\000\000"
      }
    }
  }
}
node {
  name: "FeatureExtractor/MobilenetV2/expanded_conv/depthwise/depthwise"
  op: "DepthwiseConv2dNative"
  input: "FeatureExtractor/MobilenetV2/expanded_conv/input"
  input: "FeatureExtractor/MobilenetV2/expanded_conv/depthwise/depthwise_weights/read"
  attr {
    key: "T"
    value {
      type: DT_FLOAT
    }
  }
  attr {
    key: "data_format"
    value {
      s: "NHWC"
    }
  }
  attr {
    key: "dilations"
    value {
      list {
        i: 1
        i: 1
        i: 1
        i: 1
      }
    }
  }
  attr {
    key: "padding"
    value {
      s: "SAME"
    }
  }
  attr {
    key: "strides"
    value {
      list {
        i: 1
        i: 1
        i: 1
        i: 1
      }
    }
  }
}
node {
  name: "FeatureExtractor/MobilenetV2/expanded_conv/depthwise/BatchNorm/gamma/Initializer/ones"
  op: "Const"
  attr {
    key: "_class"
    value {
      list {
        s: "loc:@FeatureExtractor/MobilenetV2/expanded_conv/depthwise/BatchNorm/gamma"
      }
    }
  }
  attr {
    key: "dtype"
    value {
      type: DT_FLOAT
    }
  }
  attr {
    key: "value"
    value {
      tensor {
        dtype: DT_FLOAT
        tensor_shape {
          dim {
            size: 32
          }
        }
        float_val: 1.0
      }
    }
  }
}
node {
  name: "FeatureExtractor/MobilenetV2/expanded_conv/depthwise/BatchNorm/gamma"
  op: "VariableV2"
  attr {
    key: "_class"
    value {
      list {
        s: "loc:@FeatureExtractor/MobilenetV2/expanded_conv/depthwise/BatchNorm/gamma"
      }
    }
  }
  attr {
    key: "container"
    value {
      s: ""
    }
  }
  attr {
    key: "dtype"
    value {
      type: DT_FLOAT
    }
  }
  attr {
    key: "shape"
    value {
      shape {
        dim {
          size: 32
        }
      }
    }
  }
  attr {
    key: "shared_name"
    value {
      s: ""
    }
  }
}
node {
  name: "FeatureExtractor/MobilenetV2/expanded_conv/depthwise/BatchNorm/gamma/Assign"
  op: "Assign"
  input: "FeatureExtractor/MobilenetV2/expanded_conv/depthwise/BatchNorm/gamma"
  input: "FeatureExtractor/MobilenetV2/expanded_conv/depthwise/BatchNorm/gamma/Initializer/ones"
  attr {
    key: "T"
    value {
      type: DT_FLOAT
    }
  }
  attr {
    key: "_class"
    value {
      list {
        s: "loc:@FeatureExtractor/MobilenetV2/expanded_conv/depthwise/BatchNorm/gamma"
      }
    }
  }
  attr {
    key: "use_locking"
    value {
      b: true
    }
  }
  attr {
    key: "validate_shape"
    value {
      b: true
    }
  }
}
node {
  name: "FeatureExtractor/MobilenetV2/expanded_conv/depthwise/BatchNorm/gamma/read"
  op: "Identity"
  input: "FeatureExtractor/MobilenetV2/expanded_conv/depthwise/BatchNorm/gamma"
  attr {
    key: "T"
    value {
      type: DT_FLOAT
    }
  }
  attr {
    key: "_class"
    value {
      list {
        s: "loc:@FeatureExtractor/MobilenetV2/expanded_conv/depthwise/BatchNorm/gamma"
      }
    }
  }
}
node {
  name: "FeatureExtractor/MobilenetV2/expanded_conv/depthwise/BatchNorm/beta/Initializer/zeros"
  op: "Const"
  attr {
    key: "_class"
    value {
      list {
        s: "loc:@FeatureExtractor/MobilenetV2/expanded_conv/depthwise/BatchNorm/beta"
      }
    }
  }
  attr {
    key: "dtype"
    value {
      type: DT_FLOAT
    }
  }
  attr {
    key: "value"
    value {
      tensor {
        dtype: DT_FLOAT
        tensor_shape {
          dim {
            size: 32
          }
        }
        float_val: 0.0
      }
    }
  }
}
node {
  name: "FeatureExtractor/MobilenetV2/expanded_conv/depthwise/BatchNorm/beta"
  op: "VariableV2"
  attr {
    key: "_class"
    value {
      list {
        s: "loc:@FeatureExtractor/MobilenetV2/expanded_conv/depthwise/BatchNorm/beta"
      }
    }
  }
  attr {
    key: "container"
    value {
      s: ""
    }
  }
  attr {
    key: "dtype"
    value {
      type: DT_FLOAT
    }
  }
  attr {
    key: "shape"
    value {
      shape {
        dim {
          size: 32
        }
      }
    }
  }
  attr {
    key: "shared_name"
    value {
      s: ""
    }
  }
}
node {
  name: "FeatureExtractor/MobilenetV2/expanded_conv/depthwise/BatchNorm/beta/Assign"
  op: "Assign"
  input: "FeatureExtractor/MobilenetV2/expanded_conv/depthwise/BatchNorm/beta"
  input: "FeatureExtractor/MobilenetV2/expanded_conv/depthwise/BatchNorm/beta/Initializer/zeros"
  attr {
    key: "T"
    value {
      type: DT_FLOAT
    }
  }
  attr {
    key: "_class"
    value {
      list {
        s: "loc:@FeatureExtractor/MobilenetV2/expanded_conv/depthwise/BatchNorm/beta"
      }
    }
  }
  attr {
    key: "use_locking"
    value {
      b: true
    }
  }
  attr {
    key: "validate_shape"
    value {
      b: true
    }
  }
}
node {
  name: "FeatureExtractor/MobilenetV2/expanded_conv/depthwise/BatchNorm/beta/read"
  op: "Identity"
  input: "FeatureExtractor/MobilenetV2/expanded_conv/depthwise/BatchNorm/beta"
  attr {
    key: "T"
    value {
      type: DT_FLOAT
    }
  }
  attr {
    key: "_class"
    value {
      list {
        s: "loc:@FeatureExtractor/MobilenetV2/expanded_conv/depthwise/BatchNorm/beta"
      }
    }
  }
}
node {
  name: "FeatureExtractor/MobilenetV2/expanded_conv/depthwise/BatchNorm/moving_mean/Initializer/zeros"
  op: "Const"
  attr {
    key: "_class"
    value {
      list {
        s: "loc:@FeatureExtractor/MobilenetV2/expanded_conv/depthwise/BatchNorm/moving_mean"
      }
    }
  }
  attr {
    key: "dtype"
    value {
      type: DT_FLOAT
    }
  }
  attr {
    key: "value"
    value {
      tensor {
        dtype: DT_FLOAT
        tensor_shape {
          dim {
            size: 32
          }
        }
        float_val: 0.0
      }
    }
  }
}
node {
  name: "FeatureExtractor/MobilenetV2/expanded_conv/depthwise/BatchNorm/moving_mean"
  op: "VariableV2"
  attr {
    key: "_class"
    value {
      list {
        s: "loc:@FeatureExtractor/MobilenetV2/expanded_conv/depthwise/BatchNorm/moving_mean"
      }
    }
  }
  attr {
    key: "container"
    value {
      s: ""
    }
  }
  attr {
    key: "dtype"
    value {
      type: DT_FLOAT
    }
  }
  attr {
    key: "shape"
    value {
      shape {
        dim {
          size: 32
        }
      }
    }
  }
  attr {
    key: "shared_name"
    value {
      s: ""
    }
  }
}
node {
  name: "FeatureExtractor/MobilenetV2/expanded_conv/depthwise/BatchNorm/moving_mean/Assign"
  op: "Assign"
  input: "FeatureExtractor/MobilenetV2/expanded_conv/depthwise/BatchNorm/moving_mean"
  input: "FeatureExtractor/MobilenetV2/expanded_conv/depthwise/BatchNorm/moving_mean/Initializer/zeros"
  attr {
    key: "T"
    value {
      type: DT_FLOAT
    }
  }
  attr {
    key: "_class"
    value {
      list {
        s: "loc:@FeatureExtractor/MobilenetV2/expanded_conv/depthwise/BatchNorm/moving_mean"
      }
    }
  }
  attr {
    key: "use_locking"
    value {
      b: true
    }
  }
  attr {
    key: "validate_shape"
    value {
      b: true
    }
  }
}
node {
  name: "FeatureExtractor/MobilenetV2/expanded_conv/depthwise/BatchNorm/moving_mean/read"
  op: "Identity"
  input: "FeatureExtractor/MobilenetV2/expanded_conv/depthwise/BatchNorm/moving_mean"
  attr {
    key: "T"
    value {
      type: DT_FLOAT
    }
  }
  attr {
    key: "_class"
    value {
      list {
        s: "loc:@FeatureExtractor/MobilenetV2/expanded_conv/depthwise/BatchNorm/moving_mean"
      }
    }
  }
}
node {
  name: "FeatureExtractor/MobilenetV2/expanded_conv/depthwise/BatchNorm/moving_variance/Initializer/ones"
  op: "Const"
  attr {
    key: "_class"
    value {
      list {
        s: "loc:@FeatureExtractor/MobilenetV2/expanded_conv/depthwise/BatchNorm/moving_variance"
      }
    }
  }
  attr {
    key: "dtype"
    value {
      type: DT_FLOAT
    }
  }
  attr {
    key: "value"
    value {
      tensor {
        dtype: DT_FLOAT
        tensor_shape {
          dim {
            size: 32
          }
        }
        float_val: 1.0
      }
    }
  }
}
node {
  name: "FeatureExtractor/MobilenetV2/expanded_conv/depthwise/BatchNorm/moving_variance"
  op: "VariableV2"
  attr {
    key: "_class"
    value {
      list {
        s: "loc:@FeatureExtractor/MobilenetV2/expanded_conv/depthwise/BatchNorm/moving_variance"
      }
    }
  }
  attr {
    key: "container"
    value {
      s: ""
    }
  }
  attr {
    key: "dtype"
    value {
      type: DT_FLOAT
    }
  }
  attr {
    key: "shape"
    value {
      shape {
        dim {
          size: 32
        }
      }
    }
  }
  attr {
    key: "shared_name"
    value {
      s: ""
    }
  }
}
node {
  name: "FeatureExtractor/MobilenetV2/expanded_conv/depthwise/BatchNorm/moving_variance/Assign"
  op: "Assign"
  input: "FeatureExtractor/MobilenetV2/expanded_conv/depthwise/BatchNorm/moving_variance"
  input: "FeatureExtractor/MobilenetV2/expanded_conv/depthwise/BatchNorm/moving_variance/Initializer/ones"
  attr {
    key: "T"
    value {
      type: DT_FLOAT
    }
  }
  attr {
    key: "_class"
    value {
      list {
        s: "loc:@FeatureExtractor/MobilenetV2/expanded_conv/depthwise/BatchNorm/moving_variance"
      }
    }
  }
  attr {
    key: "use_locking"
    value {
      b: true
    }
  }
  attr {
    key: "validate_shape"
    value {
      b: true
    }
  }
}
node {
  name: "FeatureExtractor/MobilenetV2/expanded_conv/depthwise/BatchNorm/moving_variance/read"
  op: "Identity"
  input: "FeatureExtractor/MobilenetV2/expanded_conv/depthwise/BatchNorm/moving_variance"
  attr {
    key: "T"
    value {
      type: DT_FLOAT
    }
  }
  attr {
    key: "_class"
    value {
      list {
        s: "loc:@FeatureExtractor/MobilenetV2/expanded_conv/depthwise/BatchNorm/moving_variance"
      }
    }
  }
}
node {
  name: "FeatureExtractor/MobilenetV2/expanded_conv/depthwise/BatchNorm/FusedBatchNorm"
  op: "FusedBatchNorm"
  input: "FeatureExtractor/MobilenetV2/expanded_conv/depthwise/depthwise"
  input: "FeatureExtractor/MobilenetV2/expanded_conv/depthwise/BatchNorm/gamma/read"
  input: "FeatureExtractor/MobilenetV2/expanded_conv/depthwise/BatchNorm/beta/read"
  input: "FeatureExtractor/MobilenetV2/expanded_conv/depthwise/BatchNorm/moving_mean/read"
  input: "FeatureExtractor/MobilenetV2/expanded_conv/depthwise/BatchNorm/moving_variance/read"
  attr {
    key: "T"
    value {
      type: DT_FLOAT
    }
  }
  attr {
    key: "data_format"
    value {
      s: "NHWC"
    }
  }
  attr {
    key: "epsilon"
    value {
      f: 0.0010000000474974513
    }
  }
  attr {
    key: "is_training"
    value {
      b: false
    }
  }
}
node {
  name: "FeatureExtractor/MobilenetV2/expanded_conv/depthwise/BatchNorm/Const"
  op: "Const"
  attr {
    key: "dtype"
    value {
      type: DT_FLOAT
    }
  }
  attr {
    key: "value"
    value {
      tensor {
        dtype: DT_FLOAT
        tensor_shape {
        }
        float_val: 0.9997000098228455
      }
    }
  }
}
node {
  name: "FeatureExtractor/MobilenetV2/expanded_conv/depthwise/Relu6"
  op: "Relu6"
  input: "FeatureExtractor/MobilenetV2/expanded_conv/depthwise/BatchNorm/FusedBatchNorm"
  attr {
    key: "T"
    value {
      type: DT_FLOAT
    }
  }
}
node {
  name: "FeatureExtractor/MobilenetV2/expanded_conv/depthwise_output"
  op: "Identity"
  input: "FeatureExtractor/MobilenetV2/expanded_conv/depthwise/Relu6"
  attr {
    key: "T"
    value {
      type: DT_FLOAT
    }
  }
}
node {
  name: "FeatureExtractor/MobilenetV2/expanded_conv/project/weights/Initializer/truncated_normal/shape"
  op: "Const"
  attr {
    key: "_class"
    value {
      list {
        s: "loc:@FeatureExtractor/MobilenetV2/expanded_conv/project/weights"
      }
    }
  }
  attr {
    key: "dtype"
    value {
      type: DT_INT32
    }
  }
  attr {
    key: "value"
    value {
      tensor {
        dtype: DT_INT32
        tensor_shape {
          dim {
            size: 4
          }
        }
        tensor_content: "\001\000\000\000\001\000\000\000 \000\000\000\020\000\000\000"
      }
    }
  }
}
node {
  name: "FeatureExtractor/MobilenetV2/expanded_conv/project/weights/Initializer/truncated_normal/mean"
  op: "Const"
  attr {
    key: "_class"
    value {
      list {
        s: "loc:@FeatureExtractor/MobilenetV2/expanded_conv/project/weights"
      }
    }
  }
  attr {
    key: "dtype"
    value {
      type: DT_FLOAT
    }
  }
  attr {
    key: "value"
    value {
      tensor {
        dtype: DT_FLOAT
        tensor_shape {
        }
        float_val: 0.0
      }
    }
  }
}
node {
  name: "FeatureExtractor/MobilenetV2/expanded_conv/project/weights/Initializer/truncated_normal/stddev"
  op: "Const"
  attr {
    key: "_class"
    value {
      list {
        s: "loc:@FeatureExtractor/MobilenetV2/expanded_conv/project/weights"
      }
    }
  }
  attr {
    key: "dtype"
    value {
      type: DT_FLOAT
    }
  }
  attr {
    key: "value"
    value {
      tensor {
        dtype: DT_FLOAT
        tensor_shape {
        }
        float_val: 0.09000000357627869
      }
    }
  }
}
node {
  name: "FeatureExtractor/MobilenetV2/expanded_conv/project/weights/Initializer/truncated_normal/TruncatedNormal"
  op: "TruncatedNormal"
  input: "FeatureExtractor/MobilenetV2/expanded_conv/project/weights/Initializer/truncated_normal/shape"
  attr {
    key: "T"
    value {
      type: DT_INT32
    }
  }
  attr {
    key: "_class"
    value {
      list {
        s: "loc:@FeatureExtractor/MobilenetV2/expanded_conv/project/weights"
      }
    }
  }
  attr {
    key: "dtype"
    value {
      type: DT_FLOAT
    }
  }
  attr {
    key: "seed"
    value {
      i: 0
    }
  }
  attr {
    key: "seed2"
    value {
      i: 0
    }
  }
}
node {
  name: "FeatureExtractor/MobilenetV2/expanded_conv/project/weights/Initializer/truncated_normal/mul"
  op: "Mul"
  input: "FeatureExtractor/MobilenetV2/expanded_conv/project/weights/Initializer/truncated_normal/TruncatedNormal"
  input: "FeatureExtractor/MobilenetV2/expanded_conv/project/weights/Initializer/truncated_normal/stddev"
  attr {
    key: "T"
    value {
      type: DT_FLOAT
    }
  }
  attr {
    key: "_class"
    value {
      list {
        s: "loc:@FeatureExtractor/MobilenetV2/expanded_conv/project/weights"
      }
    }
  }
}
node {
  name: "FeatureExtractor/MobilenetV2/expanded_conv/project/weights/Initializer/truncated_normal"
  op: "Add"
  input: "FeatureExtractor/MobilenetV2/expanded_conv/project/weights/Initializer/truncated_normal/mul"
  input: "FeatureExtractor/MobilenetV2/expanded_conv/project/weights/Initializer/truncated_normal/mean"
  attr {
    key: "T"
    value {
      type: DT_FLOAT
    }
  }
  attr {
    key: "_class"
    value {
      list {
        s: "loc:@FeatureExtractor/MobilenetV2/expanded_conv/project/weights"
      }
    }
  }
}
node {
  name: "FeatureExtractor/MobilenetV2/expanded_conv/project/weights"
  op: "VariableV2"
  attr {
    key: "_class"
    value {
      list {
        s: "loc:@FeatureExtractor/MobilenetV2/expanded_conv/project/weights"
      }
    }
  }
  attr {
    key: "container"
    value {
      s: ""
    }
  }
  attr {
    key: "dtype"
    value {
      type: DT_FLOAT
    }
  }
  attr {
    key: "shape"
    value {
      shape {
        dim {
          size: 1
        }
        dim {
          size: 1
        }
        dim {
          size: 32
        }
        dim {
          size: 16
        }
      }
    }
  }
  attr {
    key: "shared_name"
    value {
      s: ""
    }
  }
}
node {
  name: "FeatureExtractor/MobilenetV2/expanded_conv/project/weights/Assign"
  op: "Assign"
  input: "FeatureExtractor/MobilenetV2/expanded_conv/project/weights"
  input: "FeatureExtractor/MobilenetV2/expanded_conv/project/weights/Initializer/truncated_normal"
  attr {
    key: "T"
    value {
      type: DT_FLOAT
    }
  }
  attr {
    key: "_class"
    value {
      list {
        s: "loc:@FeatureExtractor/MobilenetV2/expanded_conv/project/weights"
      }
    }
  }
  attr {
    key: "use_locking"
    value {
      b: true
    }
  }
  attr {
    key: "validate_shape"
    value {
      b: true
    }
  }
}
node {
  name: "FeatureExtractor/MobilenetV2/expanded_conv/project/weights/read"
  op: "Identity"
  input: "FeatureExtractor/MobilenetV2/expanded_conv/project/weights"
  attr {
    key: "T"
    value {
      type: DT_FLOAT
    }
  }
  attr {
    key: "_class"
    value {
      list {
        s: "loc:@FeatureExtractor/MobilenetV2/expanded_conv/project/weights"
      }
    }
  }
}
node {
  name: "FeatureExtractor/MobilenetV2/expanded_conv/project/kernel/Regularizer/l2_regularizer/scale"
  op: "Const"
  attr {
    key: "dtype"
    value {
      type: DT_FLOAT
    }
  }
  attr {
    key: "value"
    value {
      tensor {
        dtype: DT_FLOAT
        tensor_shape {
        }
        float_val: 3.9999998989515007e-05
      }
    }
  }
}
node {
  name: "FeatureExtractor/MobilenetV2/expanded_conv/project/kernel/Regularizer/l2_regularizer/L2Loss"
  op: "L2Loss"
  input: "FeatureExtractor/MobilenetV2/expanded_conv/project/weights/read"
  attr {
    key: "T"
    value {
      type: DT_FLOAT
    }
  }
}
node {
  name: "FeatureExtractor/MobilenetV2/expanded_conv/project/kernel/Regularizer/l2_regularizer"
  op: "Mul"
  input: "FeatureExtractor/MobilenetV2/expanded_conv/project/kernel/Regularizer/l2_regularizer/scale"
  input: "FeatureExtractor/MobilenetV2/expanded_conv/project/kernel/Regularizer/l2_regularizer/L2Loss"
  attr {
    key: "T"
    value {
      type: DT_FLOAT
    }
  }
}
node {
  name: "FeatureExtractor/MobilenetV2/expanded_conv/project/dilation_rate"
  op: "Const"
  attr {
    key: "dtype"
    value {
      type: DT_INT32
    }
  }
  attr {
    key: "value"
    value {
      tensor {
        dtype: DT_INT32
        tensor_shape {
          dim {
            size: 2
          }
        }
        tensor_content: "\001\000\000\000\001\000\000\000"
      }
    }
  }
}
node {
  name: "FeatureExtractor/MobilenetV2/expanded_conv/project/Conv2D"
  op: "Conv2D"
  input: "FeatureExtractor/MobilenetV2/expanded_conv/depthwise_output"
  input: "FeatureExtractor/MobilenetV2/expanded_conv/project/weights/read"
  attr {
    key: "T"
    value {
      type: DT_FLOAT
    }
  }
  attr {
    key: "data_format"
    value {
      s: "NHWC"
    }
  }
  attr {
    key: "dilations"
    value {
      list {
        i: 1
        i: 1
        i: 1
        i: 1
      }
    }
  }
  attr {
    key: "explicit_paddings"
    value {
      list {
      }
    }
  }
  attr {
    key: "padding"
    value {
      s: "SAME"
    }
  }
  attr {
    key: "strides"
    value {
      list {
        i: 1
        i: 1
        i: 1
        i: 1
      }
    }
  }
  attr {
    key: "use_cudnn_on_gpu"
    value {
      b: true
    }
  }
}
node {
  name: "FeatureExtractor/MobilenetV2/expanded_conv/project/BatchNorm/gamma/Initializer/ones"
  op: "Const"
  attr {
    key: "_class"
    value {
      list {
        s: "loc:@FeatureExtractor/MobilenetV2/expanded_conv/project/BatchNorm/gamma"
      }
    }
  }
  attr {
    key: "dtype"
    value {
      type: DT_FLOAT
    }
  }
  attr {
    key: "value"
    value {
      tensor {
        dtype: DT_FLOAT
        tensor_shape {
          dim {
            size: 16
          }
        }
        float_val: 1.0
      }
    }
  }
}
node {
  name: "FeatureExtractor/MobilenetV2/expanded_conv/project/BatchNorm/gamma"
  op: "VariableV2"
  attr {
    key: "_class"
    value {
      list {
        s: "loc:@FeatureExtractor/MobilenetV2/expanded_conv/project/BatchNorm/gamma"
      }
    }
  }
  attr {
    key: "container"
    value {
      s: ""
    }
  }
  attr {
    key: "dtype"
    value {
      type: DT_FLOAT
    }
  }
  attr {
    key: "shape"
    value {
      shape {
        dim {
          size: 16
        }
      }
    }
  }
  attr {
    key: "shared_name"
    value {
      s: ""
    }
  }
}
node {
  name: "FeatureExtractor/MobilenetV2/expanded_conv/project/BatchNorm/gamma/Assign"
  op: "Assign"
  input: "FeatureExtractor/MobilenetV2/expanded_conv/project/BatchNorm/gamma"
  input: "FeatureExtractor/MobilenetV2/expanded_conv/project/BatchNorm/gamma/Initializer/ones"
  attr {
    key: "T"
    value {
      type: DT_FLOAT
    }
  }
  attr {
    key: "_class"
    value {
      list {
        s: "loc:@FeatureExtractor/MobilenetV2/expanded_conv/project/BatchNorm/gamma"
      }
    }
  }
  attr {
    key: "use_locking"
    value {
      b: true
    }
  }
  attr {
    key: "validate_shape"
    value {
      b: true
    }
  }
}
node {
  name: "FeatureExtractor/MobilenetV2/expanded_conv/project/BatchNorm/gamma/read"
  op: "Identity"
  input: "FeatureExtractor/MobilenetV2/expanded_conv/project/BatchNorm/gamma"
  attr {
    key: "T"
    value {
      type: DT_FLOAT
    }
  }
  attr {
    key: "_class"
    value {
      list {
        s: "loc:@FeatureExtractor/MobilenetV2/expanded_conv/project/BatchNorm/gamma"
      }
    }
  }
}
node {
  name: "FeatureExtractor/MobilenetV2/expanded_conv/project/BatchNorm/beta/Initializer/zeros"
  op: "Const"
  attr {
    key: "_class"
    value {
      list {
        s: "loc:@FeatureExtractor/MobilenetV2/expanded_conv/project/BatchNorm/beta"
      }
    }
  }
  attr {
    key: "dtype"
    value {
      type: DT_FLOAT
    }
  }
  attr {
    key: "value"
    value {
      tensor {
        dtype: DT_FLOAT
        tensor_shape {
          dim {
            size: 16
          }
        }
        float_val: 0.0
      }
    }
  }
}
node {
  name: "FeatureExtractor/MobilenetV2/expanded_conv/project/BatchNorm/beta"
  op: "VariableV2"
  attr {
    key: "_class"
    value {
      list {
        s: "loc:@FeatureExtractor/MobilenetV2/expanded_conv/project/BatchNorm/beta"
      }
    }
  }
  attr {
    key: "container"
    value {
      s: ""
    }
  }
  attr {
    key: "dtype"
    value {
      type: DT_FLOAT
    }
  }
  attr {
    key: "shape"
    value {
      shape {
        dim {
          size: 16
        }
      }
    }
  }
  attr {
    key: "shared_name"
    value {
      s: ""
    }
  }
}
node {
  name: "FeatureExtractor/MobilenetV2/expanded_conv/project/BatchNorm/beta/Assign"
  op: "Assign"
  input: "FeatureExtractor/MobilenetV2/expanded_conv/project/BatchNorm/beta"
  input: "FeatureExtractor/MobilenetV2/expanded_conv/project/BatchNorm/beta/Initializer/zeros"
  attr {
    key: "T"
    value {
      type: DT_FLOAT
    }
  }
  attr {
    key: "_class"
    value {
      list {
        s: "loc:@FeatureExtractor/MobilenetV2/expanded_conv/project/BatchNorm/beta"
      }
    }
  }
  attr {
    key: "use_locking"
    value {
      b: true
    }
  }
  attr {
    key: "validate_shape"
    value {
      b: true
    }
  }
}
node {
  name: "FeatureExtractor/MobilenetV2/expanded_conv/project/BatchNorm/beta/read"
  op: "Identity"
  input: "FeatureExtractor/MobilenetV2/expanded_conv/project/BatchNorm/beta"
  attr {
    key: "T"
    value {
      type: DT_FLOAT
    }
  }
  attr {
    key: "_class"
    value {
      list {
        s: "loc:@FeatureExtractor/MobilenetV2/expanded_conv/project/BatchNorm/beta"
      }
    }
  }
}
node {
  name: "FeatureExtractor/MobilenetV2/expanded_conv/project/BatchNorm/moving_mean/Initializer/zeros"
  op: "Const"
  attr {
    key: "_class"
    value {
      list {
        s: "loc:@FeatureExtractor/MobilenetV2/expanded_conv/project/BatchNorm/moving_mean"
      }
    }
  }
  attr {
    key: "dtype"
    value {
      type: DT_FLOAT
    }
  }
  attr {
    key: "value"
    value {
      tensor {
        dtype: DT_FLOAT
        tensor_shape {
          dim {
            size: 16
          }
        }
        float_val: 0.0
      }
    }
  }
}
node {
  name: "FeatureExtractor/MobilenetV2/expanded_conv/project/BatchNorm/moving_mean"
  op: "VariableV2"
  attr {
    key: "_class"
    value {
      list {
        s: "loc:@FeatureExtractor/MobilenetV2/expanded_conv/project/BatchNorm/moving_mean"
      }
    }
  }
  attr {
    key: "container"
    value {
      s: ""
    }
  }
  attr {
    key: "dtype"
    value {
      type: DT_FLOAT
    }
  }
  attr {
    key: "shape"
    value {
      shape {
        dim {
          size: 16
        }
      }
    }
  }
  attr {
    key: "shared_name"
    value {
      s: ""
    }
  }
}
node {
  name: "FeatureExtractor/MobilenetV2/expanded_conv/project/BatchNorm/moving_mean/Assign"
  op: "Assign"
  input: "FeatureExtractor/MobilenetV2/expanded_conv/project/BatchNorm/moving_mean"
  input: "FeatureExtractor/MobilenetV2/expanded_conv/project/BatchNorm/moving_mean/Initializer/zeros"
  attr {
    key: "T"
    value {
      type: DT_FLOAT
    }
  }
  attr {
    key: "_class"
    value {
      list {
        s: "loc:@FeatureExtractor/MobilenetV2/expanded_conv/project/BatchNorm/moving_mean"
      }
    }
  }
  attr {
    key: "use_locking"
    value {
      b: true
    }
  }
  attr {
    key: "validate_shape"
    value {
      b: true
    }
  }
}
node {
  name: "FeatureExtractor/MobilenetV2/expanded_conv/project/BatchNorm/moving_mean/read"
  op: "Identity"
  input: "FeatureExtractor/MobilenetV2/expanded_conv/project/BatchNorm/moving_mean"
  attr {
    key: "T"
    value {
      type: DT_FLOAT
    }
  }
  attr {
    key: "_class"
    value {
      list {
        s: "loc:@FeatureExtractor/MobilenetV2/expanded_conv/project/BatchNorm/moving_mean"
      }
    }
  }
}
node {
  name: "FeatureExtractor/MobilenetV2/expanded_conv/project/BatchNorm/moving_variance/Initializer/ones"
  op: "Const"
  attr {
    key: "_class"
    value {
      list {
        s: "loc:@FeatureExtractor/MobilenetV2/expanded_conv/project/BatchNorm/moving_variance"
      }
    }
  }
  attr {
    key: "dtype"
    value {
      type: DT_FLOAT
    }
  }
  attr {
    key: "value"
    value {
      tensor {
        dtype: DT_FLOAT
        tensor_shape {
          dim {
            size: 16
          }
        }
        float_val: 1.0
      }
    }
  }
}
node {
  name: "FeatureExtractor/MobilenetV2/expanded_conv/project/BatchNorm/moving_variance"
  op: "VariableV2"
  attr {
    key: "_class"
    value {
      list {
        s: "loc:@FeatureExtractor/MobilenetV2/expanded_conv/project/BatchNorm/moving_variance"
      }
    }
  }
  attr {
    key: "container"
    value {
      s: ""
    }
  }
  attr {
    key: "dtype"
    value {
      type: DT_FLOAT
    }
  }
  attr {
    key: "shape"
    value {
      shape {
        dim {
          size: 16
        }
      }
    }
  }
  attr {
    key: "shared_name"
    value {
      s: ""
    }
  }
}
node {
  name: "FeatureExtractor/MobilenetV2/expanded_conv/project/BatchNorm/moving_variance/Assign"
  op: "Assign"
  input: "FeatureExtractor/MobilenetV2/expanded_conv/project/BatchNorm/moving_variance"
  input: "FeatureExtractor/MobilenetV2/expanded_conv/project/BatchNorm/moving_variance/Initializer/ones"
  attr {
    key: "T"
    value {
      type: DT_FLOAT
    }
  }
  attr {
    key: "_class"
    value {
      list {
        s: "loc:@FeatureExtractor/MobilenetV2/expanded_conv/project/BatchNorm/moving_variance"
      }
    }
  }
  attr {
    key: "use_locking"
    value {
      b: true
    }
  }
  attr {
    key: "validate_shape"
    value {
      b: true
    }
  }
}
node {
  name: "FeatureExtractor/MobilenetV2/expanded_conv/project/BatchNorm/moving_variance/read"
  op: "Identity"
  input: "FeatureExtractor/MobilenetV2/expanded_conv/project/BatchNorm/moving_variance"
  attr {
    key: "T"
    value {
      type: DT_FLOAT
    }
  }
  attr {
    key: "_class"
    value {
      list {
        s: "loc:@FeatureExtractor/MobilenetV2/expanded_conv/project/BatchNorm/moving_variance"
      }
    }
  }
}
node {
  name: "FeatureExtractor/MobilenetV2/expanded_conv/project/BatchNorm/FusedBatchNorm"
  op: "FusedBatchNorm"
  input: "FeatureExtractor/MobilenetV2/expanded_conv/project/Conv2D"
  input: "FeatureExtractor/MobilenetV2/expanded_conv/project/BatchNorm/gamma/read"
  input: "FeatureExtractor/MobilenetV2/expanded_conv/project/BatchNorm/beta/read"
  input: "FeatureExtractor/MobilenetV2/expanded_conv/project/BatchNorm/moving_mean/read"
  input: "FeatureExtractor/MobilenetV2/expanded_conv/project/BatchNorm/moving_variance/read"
  attr {
    key: "T"
    value {
      type: DT_FLOAT
    }
  }
  attr {
    key: "data_format"
    value {
      s: "NHWC"
    }
  }
  attr {
    key: "epsilon"
    value {
      f: 0.0010000000474974513
    }
  }
  attr {
    key: "is_training"
    value {
      b: false
    }
  }
}
node {
  name: "FeatureExtractor/MobilenetV2/expanded_conv/project/BatchNorm/Const"
  op: "Const"
  attr {
    key: "dtype"
    value {
      type: DT_FLOAT
    }
  }
  attr {
    key: "value"
    value {
      tensor {
        dtype: DT_FLOAT
        tensor_shape {
        }
        float_val: 0.9997000098228455
      }
    }
  }
}
node {
  name: "FeatureExtractor/MobilenetV2/expanded_conv/project/Identity"
  op: "Identity"
  input: "FeatureExtractor/MobilenetV2/expanded_conv/project/BatchNorm/FusedBatchNorm"
  attr {
    key: "T"
    value {
      type: DT_FLOAT
    }
  }
}
node {
  name: "FeatureExtractor/MobilenetV2/expanded_conv/output"
  op: "Identity"
  input: "FeatureExtractor/MobilenetV2/expanded_conv/project/Identity"
  attr {
    key: "T"
    value {
      type: DT_FLOAT
    }
  }
}
node {
  name: "FeatureExtractor/MobilenetV2/expanded_conv_1/input"
  op: "Identity"
  input: "FeatureExtractor/MobilenetV2/expanded_conv/output"
  attr {
    key: "T"
    value {
      type: DT_FLOAT
    }
  }
}
node {
  name: "FeatureExtractor/MobilenetV2/expanded_conv_1/expand/weights/Initializer/truncated_normal/shape"
  op: "Const"
  attr {
    key: "_class"
    value {
      list {
        s: "loc:@FeatureExtractor/MobilenetV2/expanded_conv_1/expand/weights"
      }
    }
  }
  attr {
    key: "dtype"
    value {
      type: DT_INT32
    }
  }
  attr {
    key: "value"
    value {
      tensor {
        dtype: DT_INT32
        tensor_shape {
          dim {
            size: 4
          }
        }
        tensor_content: "\001\000\000\000\001\000\000\000\020\000\000\000`\000\000\000"
      }
    }
  }
}
node {
  name: "FeatureExtractor/MobilenetV2/expanded_conv_1/expand/weights/Initializer/truncated_normal/mean"
  op: "Const"
  attr {
    key: "_class"
    value {
      list {
        s: "loc:@FeatureExtractor/MobilenetV2/expanded_conv_1/expand/weights"
      }
    }
  }
  attr {
    key: "dtype"
    value {
      type: DT_FLOAT
    }
  }
  attr {
    key: "value"
    value {
      tensor {
        dtype: DT_FLOAT
        tensor_shape {
        }
        float_val: 0.0
      }
    }
  }
}
node {
  name: "FeatureExtractor/MobilenetV2/expanded_conv_1/expand/weights/Initializer/truncated_normal/stddev"
  op: "Const"
  attr {
    key: "_class"
    value {
      list {
        s: "loc:@FeatureExtractor/MobilenetV2/expanded_conv_1/expand/weights"
      }
    }
  }
  attr {
    key: "dtype"
    value {
      type: DT_FLOAT
    }
  }
  attr {
    key: "value"
    value {
      tensor {
        dtype: DT_FLOAT
        tensor_shape {
        }
        float_val: 0.09000000357627869
      }
    }
  }
}
node {
  name: "FeatureExtractor/MobilenetV2/expanded_conv_1/expand/weights/Initializer/truncated_normal/TruncatedNormal"
  op: "TruncatedNormal"
  input: "FeatureExtractor/MobilenetV2/expanded_conv_1/expand/weights/Initializer/truncated_normal/shape"
  attr {
    key: "T"
    value {
      type: DT_INT32
    }
  }
  attr {
    key: "_class"
    value {
      list {
        s: "loc:@FeatureExtractor/MobilenetV2/expanded_conv_1/expand/weights"
      }
    }
  }
  attr {
    key: "dtype"
    value {
      type: DT_FLOAT
    }
  }
  attr {
    key: "seed"
    value {
      i: 0
    }
  }
  attr {
    key: "seed2"
    value {
      i: 0
    }
  }
}
node {
  name: "FeatureExtractor/MobilenetV2/expanded_conv_1/expand/weights/Initializer/truncated_normal/mul"
  op: "Mul"
  input: "FeatureExtractor/MobilenetV2/expanded_conv_1/expand/weights/Initializer/truncated_normal/TruncatedNormal"
  input: "FeatureExtractor/MobilenetV2/expanded_conv_1/expand/weights/Initializer/truncated_normal/stddev"
  attr {
    key: "T"
    value {
      type: DT_FLOAT
    }
  }
  attr {
    key: "_class"
    value {
      list {
        s: "loc:@FeatureExtractor/MobilenetV2/expanded_conv_1/expand/weights"
      }
    }
  }
}
node {
  name: "FeatureExtractor/MobilenetV2/expanded_conv_1/expand/weights/Initializer/truncated_normal"
  op: "Add"
  input: "FeatureExtractor/MobilenetV2/expanded_conv_1/expand/weights/Initializer/truncated_normal/mul"
  input: "FeatureExtractor/MobilenetV2/expanded_conv_1/expand/weights/Initializer/truncated_normal/mean"
  attr {
    key: "T"
    value {
      type: DT_FLOAT
    }
  }
  attr {
    key: "_class"
    value {
      list {
        s: "loc:@FeatureExtractor/MobilenetV2/expanded_conv_1/expand/weights"
      }
    }
  }
}
node {
  name: "FeatureExtractor/MobilenetV2/expanded_conv_1/expand/weights"
  op: "VariableV2"
  attr {
    key: "_class"
    value {
      list {
        s: "loc:@FeatureExtractor/MobilenetV2/expanded_conv_1/expand/weights"
      }
    }
  }
  attr {
    key: "container"
    value {
      s: ""
    }
  }
  attr {
    key: "dtype"
    value {
      type: DT_FLOAT
    }
  }
  attr {
    key: "shape"
    value {
      shape {
        dim {
          size: 1
        }
        dim {
          size: 1
        }
        dim {
          size: 16
        }
        dim {
          size: 96
        }
      }
    }
  }
  attr {
    key: "shared_name"
    value {
      s: ""
    }
  }
}
node {
  name: "FeatureExtractor/MobilenetV2/expanded_conv_1/expand/weights/Assign"
  op: "Assign"
  input: "FeatureExtractor/MobilenetV2/expanded_conv_1/expand/weights"
  input: "FeatureExtractor/MobilenetV2/expanded_conv_1/expand/weights/Initializer/truncated_normal"
  attr {
    key: "T"
    value {
      type: DT_FLOAT
    }
  }
  attr {
    key: "_class"
    value {
      list {
        s: "loc:@FeatureExtractor/MobilenetV2/expanded_conv_1/expand/weights"
      }
    }
  }
  attr {
    key: "use_locking"
    value {
      b: true
    }
  }
  attr {
    key: "validate_shape"
    value {
      b: true
    }
  }
}
node {
  name: "FeatureExtractor/MobilenetV2/expanded_conv_1/expand/weights/read"
  op: "Identity"
  input: "FeatureExtractor/MobilenetV2/expanded_conv_1/expand/weights"
  attr {
    key: "T"
    value {
      type: DT_FLOAT
    }
  }
  attr {
    key: "_class"
    value {
      list {
        s: "loc:@FeatureExtractor/MobilenetV2/expanded_conv_1/expand/weights"
      }
    }
  }
}
node {
  name: "FeatureExtractor/MobilenetV2/expanded_conv_1/expand/kernel/Regularizer/l2_regularizer/scale"
  op: "Const"
  attr {
    key: "dtype"
    value {
      type: DT_FLOAT
    }
  }
  attr {
    key: "value"
    value {
      tensor {
        dtype: DT_FLOAT
        tensor_shape {
        }
        float_val: 3.9999998989515007e-05
      }
    }
  }
}
node {
  name: "FeatureExtractor/MobilenetV2/expanded_conv_1/expand/kernel/Regularizer/l2_regularizer/L2Loss"
  op: "L2Loss"
  input: "FeatureExtractor/MobilenetV2/expanded_conv_1/expand/weights/read"
  attr {
    key: "T"
    value {
      type: DT_FLOAT
    }
  }
}
node {
  name: "FeatureExtractor/MobilenetV2/expanded_conv_1/expand/kernel/Regularizer/l2_regularizer"
  op: "Mul"
  input: "FeatureExtractor/MobilenetV2/expanded_conv_1/expand/kernel/Regularizer/l2_regularizer/scale"
  input: "FeatureExtractor/MobilenetV2/expanded_conv_1/expand/kernel/Regularizer/l2_regularizer/L2Loss"
  attr {
    key: "T"
    value {
      type: DT_FLOAT
    }
  }
}
node {
  name: "FeatureExtractor/MobilenetV2/expanded_conv_1/expand/dilation_rate"
  op: "Const"
  attr {
    key: "dtype"
    value {
      type: DT_INT32
    }
  }
  attr {
    key: "value"
    value {
      tensor {
        dtype: DT_INT32
        tensor_shape {
          dim {
            size: 2
          }
        }
        tensor_content: "\001\000\000\000\001\000\000\000"
      }
    }
  }
}
node {
  name: "FeatureExtractor/MobilenetV2/expanded_conv_1/expand/Conv2D"
  op: "Conv2D"
  input: "FeatureExtractor/MobilenetV2/expanded_conv_1/input"
  input: "FeatureExtractor/MobilenetV2/expanded_conv_1/expand/weights/read"
  attr {
    key: "T"
    value {
      type: DT_FLOAT
    }
  }
  attr {
    key: "data_format"
    value {
      s: "NHWC"
    }
  }
  attr {
    key: "dilations"
    value {
      list {
        i: 1
        i: 1
        i: 1
        i: 1
      }
    }
  }
  attr {
    key: "explicit_paddings"
    value {
      list {
      }
    }
  }
  attr {
    key: "padding"
    value {
      s: "SAME"
    }
  }
  attr {
    key: "strides"
    value {
      list {
        i: 1
        i: 1
        i: 1
        i: 1
      }
    }
  }
  attr {
    key: "use_cudnn_on_gpu"
    value {
      b: true
    }
  }
}
node {
  name: "FeatureExtractor/MobilenetV2/expanded_conv_1/expand/BatchNorm/gamma/Initializer/ones"
  op: "Const"
  attr {
    key: "_class"
    value {
      list {
        s: "loc:@FeatureExtractor/MobilenetV2/expanded_conv_1/expand/BatchNorm/gamma"
      }
    }
  }
  attr {
    key: "dtype"
    value {
      type: DT_FLOAT
    }
  }
  attr {
    key: "value"
    value {
      tensor {
        dtype: DT_FLOAT
        tensor_shape {
          dim {
            size: 96
          }
        }
        float_val: 1.0
      }
    }
  }
}
node {
  name: "FeatureExtractor/MobilenetV2/expanded_conv_1/expand/BatchNorm/gamma"
  op: "VariableV2"
  attr {
    key: "_class"
    value {
      list {
        s: "loc:@FeatureExtractor/MobilenetV2/expanded_conv_1/expand/BatchNorm/gamma"
      }
    }
  }
  attr {
    key: "container"
    value {
      s: ""
    }
  }
  attr {
    key: "dtype"
    value {
      type: DT_FLOAT
    }
  }
  attr {
    key: "shape"
    value {
      shape {
        dim {
          size: 96
        }
      }
    }
  }
  attr {
    key: "shared_name"
    value {
      s: ""
    }
  }
}
node {
  name: "FeatureExtractor/MobilenetV2/expanded_conv_1/expand/BatchNorm/gamma/Assign"
  op: "Assign"
  input: "FeatureExtractor/MobilenetV2/expanded_conv_1/expand/BatchNorm/gamma"
  input: "FeatureExtractor/MobilenetV2/expanded_conv_1/expand/BatchNorm/gamma/Initializer/ones"
  attr {
    key: "T"
    value {
      type: DT_FLOAT
    }
  }
  attr {
    key: "_class"
    value {
      list {
        s: "loc:@FeatureExtractor/MobilenetV2/expanded_conv_1/expand/BatchNorm/gamma"
      }
    }
  }
  attr {
    key: "use_locking"
    value {
      b: true
    }
  }
  attr {
    key: "validate_shape"
    value {
      b: true
    }
  }
}
node {
  name: "FeatureExtractor/MobilenetV2/expanded_conv_1/expand/BatchNorm/gamma/read"
  op: "Identity"
  input: "FeatureExtractor/MobilenetV2/expanded_conv_1/expand/BatchNorm/gamma"
  attr {
    key: "T"
    value {
      type: DT_FLOAT
    }
  }
  attr {
    key: "_class"
    value {
      list {
        s: "loc:@FeatureExtractor/MobilenetV2/expanded_conv_1/expand/BatchNorm/gamma"
      }
    }
  }
}
node {
  name: "FeatureExtractor/MobilenetV2/expanded_conv_1/expand/BatchNorm/beta/Initializer/zeros"
  op: "Const"
  attr {
    key: "_class"
    value {
      list {
        s: "loc:@FeatureExtractor/MobilenetV2/expanded_conv_1/expand/BatchNorm/beta"
      }
    }
  }
  attr {
    key: "dtype"
    value {
      type: DT_FLOAT
    }
  }
  attr {
    key: "value"
    value {
      tensor {
        dtype: DT_FLOAT
        tensor_shape {
          dim {
            size: 96
          }
        }
        float_val: 0.0
      }
    }
  }
}
node {
  name: "FeatureExtractor/MobilenetV2/expanded_conv_1/expand/BatchNorm/beta"
  op: "VariableV2"
  attr {
    key: "_class"
    value {
      list {
        s: "loc:@FeatureExtractor/MobilenetV2/expanded_conv_1/expand/BatchNorm/beta"
      }
    }
  }
  attr {
    key: "container"
    value {
      s: ""
    }
  }
  attr {
    key: "dtype"
    value {
      type: DT_FLOAT
    }
  }
  attr {
    key: "shape"
    value {
      shape {
        dim {
          size: 96
        }
      }
    }
  }
  attr {
    key: "shared_name"
    value {
      s: ""
    }
  }
}
node {
  name: "FeatureExtractor/MobilenetV2/expanded_conv_1/expand/BatchNorm/beta/Assign"
  op: "Assign"
  input: "FeatureExtractor/MobilenetV2/expanded_conv_1/expand/BatchNorm/beta"
  input: "FeatureExtractor/MobilenetV2/expanded_conv_1/expand/BatchNorm/beta/Initializer/zeros"
  attr {
    key: "T"
    value {
      type: DT_FLOAT
    }
  }
  attr {
    key: "_class"
    value {
      list {
        s: "loc:@FeatureExtractor/MobilenetV2/expanded_conv_1/expand/BatchNorm/beta"
      }
    }
  }
  attr {
    key: "use_locking"
    value {
      b: true
    }
  }
  attr {
    key: "validate_shape"
    value {
      b: true
    }
  }
}
node {
  name: "FeatureExtractor/MobilenetV2/expanded_conv_1/expand/BatchNorm/beta/read"
  op: "Identity"
  input: "FeatureExtractor/MobilenetV2/expanded_conv_1/expand/BatchNorm/beta"
  attr {
    key: "T"
    value {
      type: DT_FLOAT
    }
  }
  attr {
    key: "_class"
    value {
      list {
        s: "loc:@FeatureExtractor/MobilenetV2/expanded_conv_1/expand/BatchNorm/beta"
      }
    }
  }
}
node {
  name: "FeatureExtractor/MobilenetV2/expanded_conv_1/expand/BatchNorm/moving_mean/Initializer/zeros"
  op: "Const"
  attr {
    key: "_class"
    value {
      list {
        s: "loc:@FeatureExtractor/MobilenetV2/expanded_conv_1/expand/BatchNorm/moving_mean"
      }
    }
  }
  attr {
    key: "dtype"
    value {
      type: DT_FLOAT
    }
  }
  attr {
    key: "value"
    value {
      tensor {
        dtype: DT_FLOAT
        tensor_shape {
          dim {
            size: 96
          }
        }
        float_val: 0.0
      }
    }
  }
}
node {
  name: "FeatureExtractor/MobilenetV2/expanded_conv_1/expand/BatchNorm/moving_mean"
  op: "VariableV2"
  attr {
    key: "_class"
    value {
      list {
        s: "loc:@FeatureExtractor/MobilenetV2/expanded_conv_1/expand/BatchNorm/moving_mean"
      }
    }
  }
  attr {
    key: "container"
    value {
      s: ""
    }
  }
  attr {
    key: "dtype"
    value {
      type: DT_FLOAT
    }
  }
  attr {
    key: "shape"
    value {
      shape {
        dim {
          size: 96
        }
      }
    }
  }
  attr {
    key: "shared_name"
    value {
      s: ""
    }
  }
}
node {
  name: "FeatureExtractor/MobilenetV2/expanded_conv_1/expand/BatchNorm/moving_mean/Assign"
  op: "Assign"
  input: "FeatureExtractor/MobilenetV2/expanded_conv_1/expand/BatchNorm/moving_mean"
  input: "FeatureExtractor/MobilenetV2/expanded_conv_1/expand/BatchNorm/moving_mean/Initializer/zeros"
  attr {
    key: "T"
    value {
      type: DT_FLOAT
    }
  }
  attr {
    key: "_class"
    value {
      list {
        s: "loc:@FeatureExtractor/MobilenetV2/expanded_conv_1/expand/BatchNorm/moving_mean"
      }
    }
  }
  attr {
    key: "use_locking"
    value {
      b: true
    }
  }
  attr {
    key: "validate_shape"
    value {
      b: true
    }
  }
}
node {
  name: "FeatureExtractor/MobilenetV2/expanded_conv_1/expand/BatchNorm/moving_mean/read"
  op: "Identity"
  input: "FeatureExtractor/MobilenetV2/expanded_conv_1/expand/BatchNorm/moving_mean"
  attr {
    key: "T"
    value {
      type: DT_FLOAT
    }
  }
  attr {
    key: "_class"
    value {
      list {
        s: "loc:@FeatureExtractor/MobilenetV2/expanded_conv_1/expand/BatchNorm/moving_mean"
      }
    }
  }
}
node {
  name: "FeatureExtractor/MobilenetV2/expanded_conv_1/expand/BatchNorm/moving_variance/Initializer/ones"
  op: "Const"
  attr {
    key: "_class"
    value {
      list {
        s: "loc:@FeatureExtractor/MobilenetV2/expanded_conv_1/expand/BatchNorm/moving_variance"
      }
    }
  }
  attr {
    key: "dtype"
    value {
      type: DT_FLOAT
    }
  }
  attr {
    key: "value"
    value {
      tensor {
        dtype: DT_FLOAT
        tensor_shape {
          dim {
            size: 96
          }
        }
        float_val: 1.0
      }
    }
  }
}
node {
  name: "FeatureExtractor/MobilenetV2/expanded_conv_1/expand/BatchNorm/moving_variance"
  op: "VariableV2"
  attr {
    key: "_class"
    value {
      list {
        s: "loc:@FeatureExtractor/MobilenetV2/expanded_conv_1/expand/BatchNorm/moving_variance"
      }
    }
  }
  attr {
    key: "container"
    value {
      s: ""
    }
  }
  attr {
    key: "dtype"
    value {
      type: DT_FLOAT
    }
  }
  attr {
    key: "shape"
    value {
      shape {
        dim {
          size: 96
        }
      }
    }
  }
  attr {
    key: "shared_name"
    value {
      s: ""
    }
  }
}
node {
  name: "FeatureExtractor/MobilenetV2/expanded_conv_1/expand/BatchNorm/moving_variance/Assign"
  op: "Assign"
  input: "FeatureExtractor/MobilenetV2/expanded_conv_1/expand/BatchNorm/moving_variance"
  input: "FeatureExtractor/MobilenetV2/expanded_conv_1/expand/BatchNorm/moving_variance/Initializer/ones"
  attr {
    key: "T"
    value {
      type: DT_FLOAT
    }
  }
  attr {
    key: "_class"
    value {
      list {
        s: "loc:@FeatureExtractor/MobilenetV2/expanded_conv_1/expand/BatchNorm/moving_variance"
      }
    }
  }
  attr {
    key: "use_locking"
    value {
      b: true
    }
  }
  attr {
    key: "validate_shape"
    value {
      b: true
    }
  }
}
node {
  name: "FeatureExtractor/MobilenetV2/expanded_conv_1/expand/BatchNorm/moving_variance/read"
  op: "Identity"
  input: "FeatureExtractor/MobilenetV2/expanded_conv_1/expand/BatchNorm/moving_variance"
  attr {
    key: "T"
    value {
      type: DT_FLOAT
    }
  }
  attr {
    key: "_class"
    value {
      list {
        s: "loc:@FeatureExtractor/MobilenetV2/expanded_conv_1/expand/BatchNorm/moving_variance"
      }
    }
  }
}
node {
  name: "FeatureExtractor/MobilenetV2/expanded_conv_1/expand/BatchNorm/FusedBatchNorm"
  op: "FusedBatchNorm"
  input: "FeatureExtractor/MobilenetV2/expanded_conv_1/expand/Conv2D"
  input: "FeatureExtractor/MobilenetV2/expanded_conv_1/expand/BatchNorm/gamma/read"
  input: "FeatureExtractor/MobilenetV2/expanded_conv_1/expand/BatchNorm/beta/read"
  input: "FeatureExtractor/MobilenetV2/expanded_conv_1/expand/BatchNorm/moving_mean/read"
  input: "FeatureExtractor/MobilenetV2/expanded_conv_1/expand/BatchNorm/moving_variance/read"
  attr {
    key: "T"
    value {
      type: DT_FLOAT
    }
  }
  attr {
    key: "data_format"
    value {
      s: "NHWC"
    }
  }
  attr {
    key: "epsilon"
    value {
      f: 0.0010000000474974513
    }
  }
  attr {
    key: "is_training"
    value {
      b: false
    }
  }
}
node {
  name: "FeatureExtractor/MobilenetV2/expanded_conv_1/expand/BatchNorm/Const"
  op: "Const"
  attr {
    key: "dtype"
    value {
      type: DT_FLOAT
    }
  }
  attr {
    key: "value"
    value {
      tensor {
        dtype: DT_FLOAT
        tensor_shape {
        }
        float_val: 0.9997000098228455
      }
    }
  }
}
node {
  name: "FeatureExtractor/MobilenetV2/expanded_conv_1/expand/Relu6"
  op: "Relu6"
  input: "FeatureExtractor/MobilenetV2/expanded_conv_1/expand/BatchNorm/FusedBatchNorm"
  attr {
    key: "T"
    value {
      type: DT_FLOAT
    }
  }
}
node {
  name: "FeatureExtractor/MobilenetV2/expanded_conv_1/expansion_output"
  op: "Identity"
  input: "FeatureExtractor/MobilenetV2/expanded_conv_1/expand/Relu6"
  attr {
    key: "T"
    value {
      type: DT_FLOAT
    }
  }
}
node {
  name: "FeatureExtractor/MobilenetV2/expanded_conv_1/depthwise/depthwise_weights/Initializer/truncated_normal/shape"
  op: "Const"
  attr {
    key: "_class"
    value {
      list {
        s: "loc:@FeatureExtractor/MobilenetV2/expanded_conv_1/depthwise/depthwise_weights"
      }
    }
  }
  attr {
    key: "dtype"
    value {
      type: DT_INT32
    }
  }
  attr {
    key: "value"
    value {
      tensor {
        dtype: DT_INT32
        tensor_shape {
          dim {
            size: 4
          }
        }
        tensor_content: "\003\000\000\000\003\000\000\000`\000\000\000\001\000\000\000"
      }
    }
  }
}
node {
  name: "FeatureExtractor/MobilenetV2/expanded_conv_1/depthwise/depthwise_weights/Initializer/truncated_normal/mean"
  op: "Const"
  attr {
    key: "_class"
    value {
      list {
        s: "loc:@FeatureExtractor/MobilenetV2/expanded_conv_1/depthwise/depthwise_weights"
      }
    }
  }
  attr {
    key: "dtype"
    value {
      type: DT_FLOAT
    }
  }
  attr {
    key: "value"
    value {
      tensor {
        dtype: DT_FLOAT
        tensor_shape {
        }
        float_val: 0.0
      }
    }
  }
}
node {
  name: "FeatureExtractor/MobilenetV2/expanded_conv_1/depthwise/depthwise_weights/Initializer/truncated_normal/stddev"
  op: "Const"
  attr {
    key: "_class"
    value {
      list {
        s: "loc:@FeatureExtractor/MobilenetV2/expanded_conv_1/depthwise/depthwise_weights"
      }
    }
  }
  attr {
    key: "dtype"
    value {
      type: DT_FLOAT
    }
  }
  attr {
    key: "value"
    value {
      tensor {
        dtype: DT_FLOAT
        tensor_shape {
        }
        float_val: 0.09000000357627869
      }
    }
  }
}
node {
  name: "FeatureExtractor/MobilenetV2/expanded_conv_1/depthwise/depthwise_weights/Initializer/truncated_normal/TruncatedNormal"
  op: "TruncatedNormal"
  input: "FeatureExtractor/MobilenetV2/expanded_conv_1/depthwise/depthwise_weights/Initializer/truncated_normal/shape"
  attr {
    key: "T"
    value {
      type: DT_INT32
    }
  }
  attr {
    key: "_class"
    value {
      list {
        s: "loc:@FeatureExtractor/MobilenetV2/expanded_conv_1/depthwise/depthwise_weights"
      }
    }
  }
  attr {
    key: "dtype"
    value {
      type: DT_FLOAT
    }
  }
  attr {
    key: "seed"
    value {
      i: 0
    }
  }
  attr {
    key: "seed2"
    value {
      i: 0
    }
  }
}
node {
  name: "FeatureExtractor/MobilenetV2/expanded_conv_1/depthwise/depthwise_weights/Initializer/truncated_normal/mul"
  op: "Mul"
  input: "FeatureExtractor/MobilenetV2/expanded_conv_1/depthwise/depthwise_weights/Initializer/truncated_normal/TruncatedNormal"
  input: "FeatureExtractor/MobilenetV2/expanded_conv_1/depthwise/depthwise_weights/Initializer/truncated_normal/stddev"
  attr {
    key: "T"
    value {
      type: DT_FLOAT
    }
  }
  attr {
    key: "_class"
    value {
      list {
        s: "loc:@FeatureExtractor/MobilenetV2/expanded_conv_1/depthwise/depthwise_weights"
      }
    }
  }
}
node {
  name: "FeatureExtractor/MobilenetV2/expanded_conv_1/depthwise/depthwise_weights/Initializer/truncated_normal"
  op: "Add"
  input: "FeatureExtractor/MobilenetV2/expanded_conv_1/depthwise/depthwise_weights/Initializer/truncated_normal/mul"
  input: "FeatureExtractor/MobilenetV2/expanded_conv_1/depthwise/depthwise_weights/Initializer/truncated_normal/mean"
  attr {
    key: "T"
    value {
      type: DT_FLOAT
    }
  }
  attr {
    key: "_class"
    value {
      list {
        s: "loc:@FeatureExtractor/MobilenetV2/expanded_conv_1/depthwise/depthwise_weights"
      }
    }
  }
}
node {
  name: "FeatureExtractor/MobilenetV2/expanded_conv_1/depthwise/depthwise_weights"
  op: "VariableV2"
  attr {
    key: "_class"
    value {
      list {
        s: "loc:@FeatureExtractor/MobilenetV2/expanded_conv_1/depthwise/depthwise_weights"
      }
    }
  }
  attr {
    key: "container"
    value {
      s: ""
    }
  }
  attr {
    key: "dtype"
    value {
      type: DT_FLOAT
    }
  }
  attr {
    key: "shape"
    value {
      shape {
        dim {
          size: 3
        }
        dim {
          size: 3
        }
        dim {
          size: 96
        }
        dim {
          size: 1
        }
      }
    }
  }
  attr {
    key: "shared_name"
    value {
      s: ""
    }
  }
}
node {
  name: "FeatureExtractor/MobilenetV2/expanded_conv_1/depthwise/depthwise_weights/Assign"
  op: "Assign"
  input: "FeatureExtractor/MobilenetV2/expanded_conv_1/depthwise/depthwise_weights"
  input: "FeatureExtractor/MobilenetV2/expanded_conv_1/depthwise/depthwise_weights/Initializer/truncated_normal"
  attr {
    key: "T"
    value {
      type: DT_FLOAT
    }
  }
  attr {
    key: "_class"
    value {
      list {
        s: "loc:@FeatureExtractor/MobilenetV2/expanded_conv_1/depthwise/depthwise_weights"
      }
    }
  }
  attr {
    key: "use_locking"
    value {
      b: true
    }
  }
  attr {
    key: "validate_shape"
    value {
      b: true
    }
  }
}
node {
  name: "FeatureExtractor/MobilenetV2/expanded_conv_1/depthwise/depthwise_weights/read"
  op: "Identity"
  input: "FeatureExtractor/MobilenetV2/expanded_conv_1/depthwise/depthwise_weights"
  attr {
    key: "T"
    value {
      type: DT_FLOAT
    }
  }
  attr {
    key: "_class"
    value {
      list {
        s: "loc:@FeatureExtractor/MobilenetV2/expanded_conv_1/depthwise/depthwise_weights"
      }
    }
  }
}
node {
  name: "FeatureExtractor/MobilenetV2/expanded_conv_1/depthwise/depthwise/Shape"
  op: "Const"
  attr {
    key: "dtype"
    value {
      type: DT_INT32
    }
  }
  attr {
    key: "value"
    value {
      tensor {
        dtype: DT_INT32
        tensor_shape {
          dim {
            size: 4
          }
        }
        tensor_content: "\003\000\000\000\003\000\000\000`\000\000\000\001\000\000\000"
      }
    }
  }
}
node {
  name: "FeatureExtractor/MobilenetV2/expanded_conv_1/depthwise/depthwise/dilation_rate"
  op: "Const"
  attr {
    key: "dtype"
    value {
      type: DT_INT32
    }
  }
  attr {
    key: "value"
    value {
      tensor {
        dtype: DT_INT32
        tensor_shape {
          dim {
            size: 2
          }
        }
        tensor_content: "\001\000\000\000\001\000\000\000"
      }
    }
  }
}
node {
  name: "FeatureExtractor/MobilenetV2/expanded_conv_1/depthwise/depthwise"
  op: "DepthwiseConv2dNative"
  input: "FeatureExtractor/MobilenetV2/expanded_conv_1/expansion_output"
  input: "FeatureExtractor/MobilenetV2/expanded_conv_1/depthwise/depthwise_weights/read"
  attr {
    key: "T"
    value {
      type: DT_FLOAT
    }
  }
  attr {
    key: "data_format"
    value {
      s: "NHWC"
    }
  }
  attr {
    key: "dilations"
    value {
      list {
        i: 1
        i: 1
        i: 1
        i: 1
      }
    }
  }
  attr {
    key: "padding"
    value {
      s: "SAME"
    }
  }
  attr {
    key: "strides"
    value {
      list {
        i: 1
        i: 2
        i: 2
        i: 1
      }
    }
  }
}
node {
  name: "FeatureExtractor/MobilenetV2/expanded_conv_1/depthwise/BatchNorm/gamma/Initializer/ones"
  op: "Const"
  attr {
    key: "_class"
    value {
      list {
        s: "loc:@FeatureExtractor/MobilenetV2/expanded_conv_1/depthwise/BatchNorm/gamma"
      }
    }
  }
  attr {
    key: "dtype"
    value {
      type: DT_FLOAT
    }
  }
  attr {
    key: "value"
    value {
      tensor {
        dtype: DT_FLOAT
        tensor_shape {
          dim {
            size: 96
          }
        }
        float_val: 1.0
      }
    }
  }
}
node {
  name: "FeatureExtractor/MobilenetV2/expanded_conv_1/depthwise/BatchNorm/gamma"
  op: "VariableV2"
  attr {
    key: "_class"
    value {
      list {
        s: "loc:@FeatureExtractor/MobilenetV2/expanded_conv_1/depthwise/BatchNorm/gamma"
      }
    }
  }
  attr {
    key: "container"
    value {
      s: ""
    }
  }
  attr {
    key: "dtype"
    value {
      type: DT_FLOAT
    }
  }
  attr {
    key: "shape"
    value {
      shape {
        dim {
          size: 96
        }
      }
    }
  }
  attr {
    key: "shared_name"
    value {
      s: ""
    }
  }
}
node {
  name: "FeatureExtractor/MobilenetV2/expanded_conv_1/depthwise/BatchNorm/gamma/Assign"
  op: "Assign"
  input: "FeatureExtractor/MobilenetV2/expanded_conv_1/depthwise/BatchNorm/gamma"
  input: "FeatureExtractor/MobilenetV2/expanded_conv_1/depthwise/BatchNorm/gamma/Initializer/ones"
  attr {
    key: "T"
    value {
      type: DT_FLOAT
    }
  }
  attr {
    key: "_class"
    value {
      list {
        s: "loc:@FeatureExtractor/MobilenetV2/expanded_conv_1/depthwise/BatchNorm/gamma"
      }
    }
  }
  attr {
    key: "use_locking"
    value {
      b: true
    }
  }
  attr {
    key: "validate_shape"
    value {
      b: true
    }
  }
}
node {
  name: "FeatureExtractor/MobilenetV2/expanded_conv_1/depthwise/BatchNorm/gamma/read"
  op: "Identity"
  input: "FeatureExtractor/MobilenetV2/expanded_conv_1/depthwise/BatchNorm/gamma"
  attr {
    key: "T"
    value {
      type: DT_FLOAT
    }
  }
  attr {
    key: "_class"
    value {
      list {
        s: "loc:@FeatureExtractor/MobilenetV2/expanded_conv_1/depthwise/BatchNorm/gamma"
      }
    }
  }
}
node {
  name: "FeatureExtractor/MobilenetV2/expanded_conv_1/depthwise/BatchNorm/beta/Initializer/zeros"
  op: "Const"
  attr {
    key: "_class"
    value {
      list {
        s: "loc:@FeatureExtractor/MobilenetV2/expanded_conv_1/depthwise/BatchNorm/beta"
      }
    }
  }
  attr {
    key: "dtype"
    value {
      type: DT_FLOAT
    }
  }
  attr {
    key: "value"
    value {
      tensor {
        dtype: DT_FLOAT
        tensor_shape {
          dim {
            size: 96
          }
        }
        float_val: 0.0
      }
    }
  }
}
node {
  name: "FeatureExtractor/MobilenetV2/expanded_conv_1/depthwise/BatchNorm/beta"
  op: "VariableV2"
  attr {
    key: "_class"
    value {
      list {
        s: "loc:@FeatureExtractor/MobilenetV2/expanded_conv_1/depthwise/BatchNorm/beta"
      }
    }
  }
  attr {
    key: "container"
    value {
      s: ""
    }
  }
  attr {
    key: "dtype"
    value {
      type: DT_FLOAT
    }
  }
  attr {
    key: "shape"
    value {
      shape {
        dim {
          size: 96
        }
      }
    }
  }
  attr {
    key: "shared_name"
    value {
      s: ""
    }
  }
}
node {
  name: "FeatureExtractor/MobilenetV2/expanded_conv_1/depthwise/BatchNorm/beta/Assign"
  op: "Assign"
  input: "FeatureExtractor/MobilenetV2/expanded_conv_1/depthwise/BatchNorm/beta"
  input: "FeatureExtractor/MobilenetV2/expanded_conv_1/depthwise/BatchNorm/beta/Initializer/zeros"
  attr {
    key: "T"
    value {
      type: DT_FLOAT
    }
  }
  attr {
    key: "_class"
    value {
      list {
        s: "loc:@FeatureExtractor/MobilenetV2/expanded_conv_1/depthwise/BatchNorm/beta"
      }
    }
  }
  attr {
    key: "use_locking"
    value {
      b: true
    }
  }
  attr {
    key: "validate_shape"
    value {
      b: true
    }
  }
}
node {
  name: "FeatureExtractor/MobilenetV2/expanded_conv_1/depthwise/BatchNorm/beta/read"
  op: "Identity"
  input: "FeatureExtractor/MobilenetV2/expanded_conv_1/depthwise/BatchNorm/beta"
  attr {
    key: "T"
    value {
      type: DT_FLOAT
    }
  }
  attr {
    key: "_class"
    value {
      list {
        s: "loc:@FeatureExtractor/MobilenetV2/expanded_conv_1/depthwise/BatchNorm/beta"
      }
    }
  }
}
node {
  name: "FeatureExtractor/MobilenetV2/expanded_conv_1/depthwise/BatchNorm/moving_mean/Initializer/zeros"
  op: "Const"
  attr {
    key: "_class"
    value {
      list {
        s: "loc:@FeatureExtractor/MobilenetV2/expanded_conv_1/depthwise/BatchNorm/moving_mean"
      }
    }
  }
  attr {
    key: "dtype"
    value {
      type: DT_FLOAT
    }
  }
  attr {
    key: "value"
    value {
      tensor {
        dtype: DT_FLOAT
        tensor_shape {
          dim {
            size: 96
          }
        }
        float_val: 0.0
      }
    }
  }
}
node {
  name: "FeatureExtractor/MobilenetV2/expanded_conv_1/depthwise/BatchNorm/moving_mean"
  op: "VariableV2"
  attr {
    key: "_class"
    value {
      list {
        s: "loc:@FeatureExtractor/MobilenetV2/expanded_conv_1/depthwise/BatchNorm/moving_mean"
      }
    }
  }
  attr {
    key: "container"
    value {
      s: ""
    }
  }
  attr {
    key: "dtype"
    value {
      type: DT_FLOAT
    }
  }
  attr {
    key: "shape"
    value {
      shape {
        dim {
          size: 96
        }
      }
    }
  }
  attr {
    key: "shared_name"
    value {
      s: ""
    }
  }
}
node {
  name: "FeatureExtractor/MobilenetV2/expanded_conv_1/depthwise/BatchNorm/moving_mean/Assign"
  op: "Assign"
  input: "FeatureExtractor/MobilenetV2/expanded_conv_1/depthwise/BatchNorm/moving_mean"
  input: "FeatureExtractor/MobilenetV2/expanded_conv_1/depthwise/BatchNorm/moving_mean/Initializer/zeros"
  attr {
    key: "T"
    value {
      type: DT_FLOAT
    }
  }
  attr {
    key: "_class"
    value {
      list {
        s: "loc:@FeatureExtractor/MobilenetV2/expanded_conv_1/depthwise/BatchNorm/moving_mean"
      }
    }
  }
  attr {
    key: "use_locking"
    value {
      b: true
    }
  }
  attr {
    key: "validate_shape"
    value {
      b: true
    }
  }
}
node {
  name: "FeatureExtractor/MobilenetV2/expanded_conv_1/depthwise/BatchNorm/moving_mean/read"
  op: "Identity"
  input: "FeatureExtractor/MobilenetV2/expanded_conv_1/depthwise/BatchNorm/moving_mean"
  attr {
    key: "T"
    value {
      type: DT_FLOAT
    }
  }
  attr {
    key: "_class"
    value {
      list {
        s: "loc:@FeatureExtractor/MobilenetV2/expanded_conv_1/depthwise/BatchNorm/moving_mean"
      }
    }
  }
}
node {
  name: "FeatureExtractor/MobilenetV2/expanded_conv_1/depthwise/BatchNorm/moving_variance/Initializer/ones"
  op: "Const"
  attr {
    key: "_class"
    value {
      list {
        s: "loc:@FeatureExtractor/MobilenetV2/expanded_conv_1/depthwise/BatchNorm/moving_variance"
      }
    }
  }
  attr {
    key: "dtype"
    value {
      type: DT_FLOAT
    }
  }
  attr {
    key: "value"
    value {
      tensor {
        dtype: DT_FLOAT
        tensor_shape {
          dim {
            size: 96
          }
        }
        float_val: 1.0
      }
    }
  }
}
node {
  name: "FeatureExtractor/MobilenetV2/expanded_conv_1/depthwise/BatchNorm/moving_variance"
  op: "VariableV2"
  attr {
    key: "_class"
    value {
      list {
        s: "loc:@FeatureExtractor/MobilenetV2/expanded_conv_1/depthwise/BatchNorm/moving_variance"
      }
    }
  }
  attr {
    key: "container"
    value {
      s: ""
    }
  }
  attr {
    key: "dtype"
    value {
      type: DT_FLOAT
    }
  }
  attr {
    key: "shape"
    value {
      shape {
        dim {
          size: 96
        }
      }
    }
  }
  attr {
    key: "shared_name"
    value {
      s: ""
    }
  }
}
node {
  name: "FeatureExtractor/MobilenetV2/expanded_conv_1/depthwise/BatchNorm/moving_variance/Assign"
  op: "Assign"
  input: "FeatureExtractor/MobilenetV2/expanded_conv_1/depthwise/BatchNorm/moving_variance"
  input: "FeatureExtractor/MobilenetV2/expanded_conv_1/depthwise/BatchNorm/moving_variance/Initializer/ones"
  attr {
    key: "T"
    value {
      type: DT_FLOAT
    }
  }
  attr {
    key: "_class"
    value {
      list {
        s: "loc:@FeatureExtractor/MobilenetV2/expanded_conv_1/depthwise/BatchNorm/moving_variance"
      }
    }
  }
  attr {
    key: "use_locking"
    value {
      b: true
    }
  }
  attr {
    key: "validate_shape"
    value {
      b: true
    }
  }
}
node {
  name: "FeatureExtractor/MobilenetV2/expanded_conv_1/depthwise/BatchNorm/moving_variance/read"
  op: "Identity"
  input: "FeatureExtractor/MobilenetV2/expanded_conv_1/depthwise/BatchNorm/moving_variance"
  attr {
    key: "T"
    value {
      type: DT_FLOAT
    }
  }
  attr {
    key: "_class"
    value {
      list {
        s: "loc:@FeatureExtractor/MobilenetV2/expanded_conv_1/depthwise/BatchNorm/moving_variance"
      }
    }
  }
}
node {
  name: "FeatureExtractor/MobilenetV2/expanded_conv_1/depthwise/BatchNorm/FusedBatchNorm"
  op: "FusedBatchNorm"
  input: "FeatureExtractor/MobilenetV2/expanded_conv_1/depthwise/depthwise"
  input: "FeatureExtractor/MobilenetV2/expanded_conv_1/depthwise/BatchNorm/gamma/read"
  input: "FeatureExtractor/MobilenetV2/expanded_conv_1/depthwise/BatchNorm/beta/read"
  input: "FeatureExtractor/MobilenetV2/expanded_conv_1/depthwise/BatchNorm/moving_mean/read"
  input: "FeatureExtractor/MobilenetV2/expanded_conv_1/depthwise/BatchNorm/moving_variance/read"
  attr {
    key: "T"
    value {
      type: DT_FLOAT
    }
  }
  attr {
    key: "data_format"
    value {
      s: "NHWC"
    }
  }
  attr {
    key: "epsilon"
    value {
      f: 0.0010000000474974513
    }
  }
  attr {
    key: "is_training"
    value {
      b: false
    }
  }
}
node {
  name: "FeatureExtractor/MobilenetV2/expanded_conv_1/depthwise/BatchNorm/Const"
  op: "Const"
  attr {
    key: "dtype"
    value {
      type: DT_FLOAT
    }
  }
  attr {
    key: "value"
    value {
      tensor {
        dtype: DT_FLOAT
        tensor_shape {
        }
        float_val: 0.9997000098228455
      }
    }
  }
}
node {
  name: "FeatureExtractor/MobilenetV2/expanded_conv_1/depthwise/Relu6"
  op: "Relu6"
  input: "FeatureExtractor/MobilenetV2/expanded_conv_1/depthwise/BatchNorm/FusedBatchNorm"
  attr {
    key: "T"
    value {
      type: DT_FLOAT
    }
  }
}
node {
  name: "FeatureExtractor/MobilenetV2/expanded_conv_1/depthwise_output"
  op: "Identity"
  input: "FeatureExtractor/MobilenetV2/expanded_conv_1/depthwise/Relu6"
  attr {
    key: "T"
    value {
      type: DT_FLOAT
    }
  }
}
node {
  name: "FeatureExtractor/MobilenetV2/expanded_conv_1/project/weights/Initializer/truncated_normal/shape"
  op: "Const"
  attr {
    key: "_class"
    value {
      list {
        s: "loc:@FeatureExtractor/MobilenetV2/expanded_conv_1/project/weights"
      }
    }
  }
  attr {
    key: "dtype"
    value {
      type: DT_INT32
    }
  }
  attr {
    key: "value"
    value {
      tensor {
        dtype: DT_INT32
        tensor_shape {
          dim {
            size: 4
          }
        }
        tensor_content: "\001\000\000\000\001\000\000\000`\000\000\000\030\000\000\000"
      }
    }
  }
}
node {
  name: "FeatureExtractor/MobilenetV2/expanded_conv_1/project/weights/Initializer/truncated_normal/mean"
  op: "Const"
  attr {
    key: "_class"
    value {
      list {
        s: "loc:@FeatureExtractor/MobilenetV2/expanded_conv_1/project/weights"
      }
    }
  }
  attr {
    key: "dtype"
    value {
      type: DT_FLOAT
    }
  }
  attr {
    key: "value"
    value {
      tensor {
        dtype: DT_FLOAT
        tensor_shape {
        }
        float_val: 0.0
      }
    }
  }
}
node {
  name: "FeatureExtractor/MobilenetV2/expanded_conv_1/project/weights/Initializer/truncated_normal/stddev"
  op: "Const"
  attr {
    key: "_class"
    value {
      list {
        s: "loc:@FeatureExtractor/MobilenetV2/expanded_conv_1/project/weights"
      }
    }
  }
  attr {
    key: "dtype"
    value {
      type: DT_FLOAT
    }
  }
  attr {
    key: "value"
    value {
      tensor {
        dtype: DT_FLOAT
        tensor_shape {
        }
        float_val: 0.09000000357627869
      }
    }
  }
}
node {
  name: "FeatureExtractor/MobilenetV2/expanded_conv_1/project/weights/Initializer/truncated_normal/TruncatedNormal"
  op: "TruncatedNormal"
  input: "FeatureExtractor/MobilenetV2/expanded_conv_1/project/weights/Initializer/truncated_normal/shape"
  attr {
    key: "T"
    value {
      type: DT_INT32
    }
  }
  attr {
    key: "_class"
    value {
      list {
        s: "loc:@FeatureExtractor/MobilenetV2/expanded_conv_1/project/weights"
      }
    }
  }
  attr {
    key: "dtype"
    value {
      type: DT_FLOAT
    }
  }
  attr {
    key: "seed"
    value {
      i: 0
    }
  }
  attr {
    key: "seed2"
    value {
      i: 0
    }
  }
}
node {
  name: "FeatureExtractor/MobilenetV2/expanded_conv_1/project/weights/Initializer/truncated_normal/mul"
  op: "Mul"
  input: "FeatureExtractor/MobilenetV2/expanded_conv_1/project/weights/Initializer/truncated_normal/TruncatedNormal"
  input: "FeatureExtractor/MobilenetV2/expanded_conv_1/project/weights/Initializer/truncated_normal/stddev"
  attr {
    key: "T"
    value {
      type: DT_FLOAT
    }
  }
  attr {
    key: "_class"
    value {
      list {
        s: "loc:@FeatureExtractor/MobilenetV2/expanded_conv_1/project/weights"
      }
    }
  }
}
node {
  name: "FeatureExtractor/MobilenetV2/expanded_conv_1/project/weights/Initializer/truncated_normal"
  op: "Add"
  input: "FeatureExtractor/MobilenetV2/expanded_conv_1/project/weights/Initializer/truncated_normal/mul"
  input: "FeatureExtractor/MobilenetV2/expanded_conv_1/project/weights/Initializer/truncated_normal/mean"
  attr {
    key: "T"
    value {
      type: DT_FLOAT
    }
  }
  attr {
    key: "_class"
    value {
      list {
        s: "loc:@FeatureExtractor/MobilenetV2/expanded_conv_1/project/weights"
      }
    }
  }
}
node {
  name: "FeatureExtractor/MobilenetV2/expanded_conv_1/project/weights"
  op: "VariableV2"
  attr {
    key: "_class"
    value {
      list {
        s: "loc:@FeatureExtractor/MobilenetV2/expanded_conv_1/project/weights"
      }
    }
  }
  attr {
    key: "container"
    value {
      s: ""
    }
  }
  attr {
    key: "dtype"
    value {
      type: DT_FLOAT
    }
  }
  attr {
    key: "shape"
    value {
      shape {
        dim {
          size: 1
        }
        dim {
          size: 1
        }
        dim {
          size: 96
        }
        dim {
          size: 24
        }
      }
    }
  }
  attr {
    key: "shared_name"
    value {
      s: ""
    }
  }
}
node {
  name: "FeatureExtractor/MobilenetV2/expanded_conv_1/project/weights/Assign"
  op: "Assign"
  input: "FeatureExtractor/MobilenetV2/expanded_conv_1/project/weights"
  input: "FeatureExtractor/MobilenetV2/expanded_conv_1/project/weights/Initializer/truncated_normal"
  attr {
    key: "T"
    value {
      type: DT_FLOAT
    }
  }
  attr {
    key: "_class"
    value {
      list {
        s: "loc:@FeatureExtractor/MobilenetV2/expanded_conv_1/project/weights"
      }
    }
  }
  attr {
    key: "use_locking"
    value {
      b: true
    }
  }
  attr {
    key: "validate_shape"
    value {
      b: true
    }
  }
}
node {
  name: "FeatureExtractor/MobilenetV2/expanded_conv_1/project/weights/read"
  op: "Identity"
  input: "FeatureExtractor/MobilenetV2/expanded_conv_1/project/weights"
  attr {
    key: "T"
    value {
      type: DT_FLOAT
    }
  }
  attr {
    key: "_class"
    value {
      list {
        s: "loc:@FeatureExtractor/MobilenetV2/expanded_conv_1/project/weights"
      }
    }
  }
}
node {
  name: "FeatureExtractor/MobilenetV2/expanded_conv_1/project/kernel/Regularizer/l2_regularizer/scale"
  op: "Const"
  attr {
    key: "dtype"
    value {
      type: DT_FLOAT
    }
  }
  attr {
    key: "value"
    value {
      tensor {
        dtype: DT_FLOAT
        tensor_shape {
        }
        float_val: 3.9999998989515007e-05
      }
    }
  }
}
node {
  name: "FeatureExtractor/MobilenetV2/expanded_conv_1/project/kernel/Regularizer/l2_regularizer/L2Loss"
  op: "L2Loss"
  input: "FeatureExtractor/MobilenetV2/expanded_conv_1/project/weights/read"
  attr {
    key: "T"
    value {
      type: DT_FLOAT
    }
  }
}
node {
  name: "FeatureExtractor/MobilenetV2/expanded_conv_1/project/kernel/Regularizer/l2_regularizer"
  op: "Mul"
  input: "FeatureExtractor/MobilenetV2/expanded_conv_1/project/kernel/Regularizer/l2_regularizer/scale"
  input: "FeatureExtractor/MobilenetV2/expanded_conv_1/project/kernel/Regularizer/l2_regularizer/L2Loss"
  attr {
    key: "T"
    value {
      type: DT_FLOAT
    }
  }
}
node {
  name: "FeatureExtractor/MobilenetV2/expanded_conv_1/project/dilation_rate"
  op: "Const"
  attr {
    key: "dtype"
    value {
      type: DT_INT32
    }
  }
  attr {
    key: "value"
    value {
      tensor {
        dtype: DT_INT32
        tensor_shape {
          dim {
            size: 2
          }
        }
        tensor_content: "\001\000\000\000\001\000\000\000"
      }
    }
  }
}
node {
  name: "FeatureExtractor/MobilenetV2/expanded_conv_1/project/Conv2D"
  op: "Conv2D"
  input: "FeatureExtractor/MobilenetV2/expanded_conv_1/depthwise_output"
  input: "FeatureExtractor/MobilenetV2/expanded_conv_1/project/weights/read"
  attr {
    key: "T"
    value {
      type: DT_FLOAT
    }
  }
  attr {
    key: "data_format"
    value {
      s: "NHWC"
    }
  }
  attr {
    key: "dilations"
    value {
      list {
        i: 1
        i: 1
        i: 1
        i: 1
      }
    }
  }
  attr {
    key: "explicit_paddings"
    value {
      list {
      }
    }
  }
  attr {
    key: "padding"
    value {
      s: "SAME"
    }
  }
  attr {
    key: "strides"
    value {
      list {
        i: 1
        i: 1
        i: 1
        i: 1
      }
    }
  }
  attr {
    key: "use_cudnn_on_gpu"
    value {
      b: true
    }
  }
}
node {
  name: "FeatureExtractor/MobilenetV2/expanded_conv_1/project/BatchNorm/gamma/Initializer/ones"
  op: "Const"
  attr {
    key: "_class"
    value {
      list {
        s: "loc:@FeatureExtractor/MobilenetV2/expanded_conv_1/project/BatchNorm/gamma"
      }
    }
  }
  attr {
    key: "dtype"
    value {
      type: DT_FLOAT
    }
  }
  attr {
    key: "value"
    value {
      tensor {
        dtype: DT_FLOAT
        tensor_shape {
          dim {
            size: 24
          }
        }
        float_val: 1.0
      }
    }
  }
}
node {
  name: "FeatureExtractor/MobilenetV2/expanded_conv_1/project/BatchNorm/gamma"
  op: "VariableV2"
  attr {
    key: "_class"
    value {
      list {
        s: "loc:@FeatureExtractor/MobilenetV2/expanded_conv_1/project/BatchNorm/gamma"
      }
    }
  }
  attr {
    key: "container"
    value {
      s: ""
    }
  }
  attr {
    key: "dtype"
    value {
      type: DT_FLOAT
    }
  }
  attr {
    key: "shape"
    value {
      shape {
        dim {
          size: 24
        }
      }
    }
  }
  attr {
    key: "shared_name"
    value {
      s: ""
    }
  }
}
node {
  name: "FeatureExtractor/MobilenetV2/expanded_conv_1/project/BatchNorm/gamma/Assign"
  op: "Assign"
  input: "FeatureExtractor/MobilenetV2/expanded_conv_1/project/BatchNorm/gamma"
  input: "FeatureExtractor/MobilenetV2/expanded_conv_1/project/BatchNorm/gamma/Initializer/ones"
  attr {
    key: "T"
    value {
      type: DT_FLOAT
    }
  }
  attr {
    key: "_class"
    value {
      list {
        s: "loc:@FeatureExtractor/MobilenetV2/expanded_conv_1/project/BatchNorm/gamma"
      }
    }
  }
  attr {
    key: "use_locking"
    value {
      b: true
    }
  }
  attr {
    key: "validate_shape"
    value {
      b: true
    }
  }
}
node {
  name: "FeatureExtractor/MobilenetV2/expanded_conv_1/project/BatchNorm/gamma/read"
  op: "Identity"
  input: "FeatureExtractor/MobilenetV2/expanded_conv_1/project/BatchNorm/gamma"
  attr {
    key: "T"
    value {
      type: DT_FLOAT
    }
  }
  attr {
    key: "_class"
    value {
      list {
        s: "loc:@FeatureExtractor/MobilenetV2/expanded_conv_1/project/BatchNorm/gamma"
      }
    }
  }
}
node {
  name: "FeatureExtractor/MobilenetV2/expanded_conv_1/project/BatchNorm/beta/Initializer/zeros"
  op: "Const"
  attr {
    key: "_class"
    value {
      list {
        s: "loc:@FeatureExtractor/MobilenetV2/expanded_conv_1/project/BatchNorm/beta"
      }
    }
  }
  attr {
    key: "dtype"
    value {
      type: DT_FLOAT
    }
  }
  attr {
    key: "value"
    value {
      tensor {
        dtype: DT_FLOAT
        tensor_shape {
          dim {
            size: 24
          }
        }
        float_val: 0.0
      }
    }
  }
}
node {
  name: "FeatureExtractor/MobilenetV2/expanded_conv_1/project/BatchNorm/beta"
  op: "VariableV2"
  attr {
    key: "_class"
    value {
      list {
        s: "loc:@FeatureExtractor/MobilenetV2/expanded_conv_1/project/BatchNorm/beta"
      }
    }
  }
  attr {
    key: "container"
    value {
      s: ""
    }
  }
  attr {
    key: "dtype"
    value {
      type: DT_FLOAT
    }
  }
  attr {
    key: "shape"
    value {
      shape {
        dim {
          size: 24
        }
      }
    }
  }
  attr {
    key: "shared_name"
    value {
      s: ""
    }
  }
}
node {
  name: "FeatureExtractor/MobilenetV2/expanded_conv_1/project/BatchNorm/beta/Assign"
  op: "Assign"
  input: "FeatureExtractor/MobilenetV2/expanded_conv_1/project/BatchNorm/beta"
  input: "FeatureExtractor/MobilenetV2/expanded_conv_1/project/BatchNorm/beta/Initializer/zeros"
  attr {
    key: "T"
    value {
      type: DT_FLOAT
    }
  }
  attr {
    key: "_class"
    value {
      list {
        s: "loc:@FeatureExtractor/MobilenetV2/expanded_conv_1/project/BatchNorm/beta"
      }
    }
  }
  attr {
    key: "use_locking"
    value {
      b: true
    }
  }
  attr {
    key: "validate_shape"
    value {
      b: true
    }
  }
}
node {
  name: "FeatureExtractor/MobilenetV2/expanded_conv_1/project/BatchNorm/beta/read"
  op: "Identity"
  input: "FeatureExtractor/MobilenetV2/expanded_conv_1/project/BatchNorm/beta"
  attr {
    key: "T"
    value {
      type: DT_FLOAT
    }
  }
  attr {
    key: "_class"
    value {
      list {
        s: "loc:@FeatureExtractor/MobilenetV2/expanded_conv_1/project/BatchNorm/beta"
      }
    }
  }
}
node {
  name: "FeatureExtractor/MobilenetV2/expanded_conv_1/project/BatchNorm/moving_mean/Initializer/zeros"
  op: "Const"
  attr {
    key: "_class"
    value {
      list {
        s: "loc:@FeatureExtractor/MobilenetV2/expanded_conv_1/project/BatchNorm/moving_mean"
      }
    }
  }
  attr {
    key: "dtype"
    value {
      type: DT_FLOAT
    }
  }
  attr {
    key: "value"
    value {
      tensor {
        dtype: DT_FLOAT
        tensor_shape {
          dim {
            size: 24
          }
        }
        float_val: 0.0
      }
    }
  }
}
node {
  name: "FeatureExtractor/MobilenetV2/expanded_conv_1/project/BatchNorm/moving_mean"
  op: "VariableV2"
  attr {
    key: "_class"
    value {
      list {
        s: "loc:@FeatureExtractor/MobilenetV2/expanded_conv_1/project/BatchNorm/moving_mean"
      }
    }
  }
  attr {
    key: "container"
    value {
      s: ""
    }
  }
  attr {
    key: "dtype"
    value {
      type: DT_FLOAT
    }
  }
  attr {
    key: "shape"
    value {
      shape {
        dim {
          size: 24
        }
      }
    }
  }
  attr {
    key: "shared_name"
    value {
      s: ""
    }
  }
}
node {
  name: "FeatureExtractor/MobilenetV2/expanded_conv_1/project/BatchNorm/moving_mean/Assign"
  op: "Assign"
  input: "FeatureExtractor/MobilenetV2/expanded_conv_1/project/BatchNorm/moving_mean"
  input: "FeatureExtractor/MobilenetV2/expanded_conv_1/project/BatchNorm/moving_mean/Initializer/zeros"
  attr {
    key: "T"
    value {
      type: DT_FLOAT
    }
  }
  attr {
    key: "_class"
    value {
      list {
        s: "loc:@FeatureExtractor/MobilenetV2/expanded_conv_1/project/BatchNorm/moving_mean"
      }
    }
  }
  attr {
    key: "use_locking"
    value {
      b: true
    }
  }
  attr {
    key: "validate_shape"
    value {
      b: true
    }
  }
}
node {
  name: "FeatureExtractor/MobilenetV2/expanded_conv_1/project/BatchNorm/moving_mean/read"
  op: "Identity"
  input: "FeatureExtractor/MobilenetV2/expanded_conv_1/project/BatchNorm/moving_mean"
  attr {
    key: "T"
    value {
      type: DT_FLOAT
    }
  }
  attr {
    key: "_class"
    value {
      list {
        s: "loc:@FeatureExtractor/MobilenetV2/expanded_conv_1/project/BatchNorm/moving_mean"
      }
    }
  }
}
node {
  name: "FeatureExtractor/MobilenetV2/expanded_conv_1/project/BatchNorm/moving_variance/Initializer/ones"
  op: "Const"
  attr {
    key: "_class"
    value {
      list {
        s: "loc:@FeatureExtractor/MobilenetV2/expanded_conv_1/project/BatchNorm/moving_variance"
      }
    }
  }
  attr {
    key: "dtype"
    value {
      type: DT_FLOAT
    }
  }
  attr {
    key: "value"
    value {
      tensor {
        dtype: DT_FLOAT
        tensor_shape {
          dim {
            size: 24
          }
        }
        float_val: 1.0
      }
    }
  }
}
node {
  name: "FeatureExtractor/MobilenetV2/expanded_conv_1/project/BatchNorm/moving_variance"
  op: "VariableV2"
  attr {
    key: "_class"
    value {
      list {
        s: "loc:@FeatureExtractor/MobilenetV2/expanded_conv_1/project/BatchNorm/moving_variance"
      }
    }
  }
  attr {
    key: "container"
    value {
      s: ""
    }
  }
  attr {
    key: "dtype"
    value {
      type: DT_FLOAT
    }
  }
  attr {
    key: "shape"
    value {
      shape {
        dim {
          size: 24
        }
      }
    }
  }
  attr {
    key: "shared_name"
    value {
      s: ""
    }
  }
}
node {
  name: "FeatureExtractor/MobilenetV2/expanded_conv_1/project/BatchNorm/moving_variance/Assign"
  op: "Assign"
  input: "FeatureExtractor/MobilenetV2/expanded_conv_1/project/BatchNorm/moving_variance"
  input: "FeatureExtractor/MobilenetV2/expanded_conv_1/project/BatchNorm/moving_variance/Initializer/ones"
  attr {
    key: "T"
    value {
      type: DT_FLOAT
    }
  }
  attr {
    key: "_class"
    value {
      list {
        s: "loc:@FeatureExtractor/MobilenetV2/expanded_conv_1/project/BatchNorm/moving_variance"
      }
    }
  }
  attr {
    key: "use_locking"
    value {
      b: true
    }
  }
  attr {
    key: "validate_shape"
    value {
      b: true
    }
  }
}
node {
  name: "FeatureExtractor/MobilenetV2/expanded_conv_1/project/BatchNorm/moving_variance/read"
  op: "Identity"
  input: "FeatureExtractor/MobilenetV2/expanded_conv_1/project/BatchNorm/moving_variance"
  attr {
    key: "T"
    value {
      type: DT_FLOAT
    }
  }
  attr {
    key: "_class"
    value {
      list {
        s: "loc:@FeatureExtractor/MobilenetV2/expanded_conv_1/project/BatchNorm/moving_variance"
      }
    }
  }
}
node {
  name: "FeatureExtractor/MobilenetV2/expanded_conv_1/project/BatchNorm/FusedBatchNorm"
  op: "FusedBatchNorm"
  input: "FeatureExtractor/MobilenetV2/expanded_conv_1/project/Conv2D"
  input: "FeatureExtractor/MobilenetV2/expanded_conv_1/project/BatchNorm/gamma/read"
  input: "FeatureExtractor/MobilenetV2/expanded_conv_1/project/BatchNorm/beta/read"
  input: "FeatureExtractor/MobilenetV2/expanded_conv_1/project/BatchNorm/moving_mean/read"
  input: "FeatureExtractor/MobilenetV2/expanded_conv_1/project/BatchNorm/moving_variance/read"
  attr {
    key: "T"
    value {
      type: DT_FLOAT
    }
  }
  attr {
    key: "data_format"
    value {
      s: "NHWC"
    }
  }
  attr {
    key: "epsilon"
    value {
      f: 0.0010000000474974513
    }
  }
  attr {
    key: "is_training"
    value {
      b: false
    }
  }
}
node {
  name: "FeatureExtractor/MobilenetV2/expanded_conv_1/project/BatchNorm/Const"
  op: "Const"
  attr {
    key: "dtype"
    value {
      type: DT_FLOAT
    }
  }
  attr {
    key: "value"
    value {
      tensor {
        dtype: DT_FLOAT
        tensor_shape {
        }
        float_val: 0.9997000098228455
      }
    }
  }
}
node {
  name: "FeatureExtractor/MobilenetV2/expanded_conv_1/project/Identity"
  op: "Identity"
  input: "FeatureExtractor/MobilenetV2/expanded_conv_1/project/BatchNorm/FusedBatchNorm"
  attr {
    key: "T"
    value {
      type: DT_FLOAT
    }
  }
}
node {
  name: "FeatureExtractor/MobilenetV2/expanded_conv_1/output"
  op: "Identity"
  input: "FeatureExtractor/MobilenetV2/expanded_conv_1/project/Identity"
  attr {
    key: "T"
    value {
      type: DT_FLOAT
    }
  }
}
node {
  name: "FeatureExtractor/MobilenetV2/expanded_conv_2/input"
  op: "Identity"
  input: "FeatureExtractor/MobilenetV2/expanded_conv_1/output"
  attr {
    key: "T"
    value {
      type: DT_FLOAT
    }
  }
}
node {
  name: "FeatureExtractor/MobilenetV2/expanded_conv_2/expand/weights/Initializer/truncated_normal/shape"
  op: "Const"
  attr {
    key: "_class"
    value {
      list {
        s: "loc:@FeatureExtractor/MobilenetV2/expanded_conv_2/expand/weights"
      }
    }
  }
  attr {
    key: "dtype"
    value {
      type: DT_INT32
    }
  }
  attr {
    key: "value"
    value {
      tensor {
        dtype: DT_INT32
        tensor_shape {
          dim {
            size: 4
          }
        }
        tensor_content: "\001\000\000\000\001\000\000\000\030\000\000\000\220\000\000\000"
      }
    }
  }
}
node {
  name: "FeatureExtractor/MobilenetV2/expanded_conv_2/expand/weights/Initializer/truncated_normal/mean"
  op: "Const"
  attr {
    key: "_class"
    value {
      list {
        s: "loc:@FeatureExtractor/MobilenetV2/expanded_conv_2/expand/weights"
      }
    }
  }
  attr {
    key: "dtype"
    value {
      type: DT_FLOAT
    }
  }
  attr {
    key: "value"
    value {
      tensor {
        dtype: DT_FLOAT
        tensor_shape {
        }
        float_val: 0.0
      }
    }
  }
}
node {
  name: "FeatureExtractor/MobilenetV2/expanded_conv_2/expand/weights/Initializer/truncated_normal/stddev"
  op: "Const"
  attr {
    key: "_class"
    value {
      list {
        s: "loc:@FeatureExtractor/MobilenetV2/expanded_conv_2/expand/weights"
      }
    }
  }
  attr {
    key: "dtype"
    value {
      type: DT_FLOAT
    }
  }
  attr {
    key: "value"
    value {
      tensor {
        dtype: DT_FLOAT
        tensor_shape {
        }
        float_val: 0.09000000357627869
      }
    }
  }
}
node {
  name: "FeatureExtractor/MobilenetV2/expanded_conv_2/expand/weights/Initializer/truncated_normal/TruncatedNormal"
  op: "TruncatedNormal"
  input: "FeatureExtractor/MobilenetV2/expanded_conv_2/expand/weights/Initializer/truncated_normal/shape"
  attr {
    key: "T"
    value {
      type: DT_INT32
    }
  }
  attr {
    key: "_class"
    value {
      list {
        s: "loc:@FeatureExtractor/MobilenetV2/expanded_conv_2/expand/weights"
      }
    }
  }
  attr {
    key: "dtype"
    value {
      type: DT_FLOAT
    }
  }
  attr {
    key: "seed"
    value {
      i: 0
    }
  }
  attr {
    key: "seed2"
    value {
      i: 0
    }
  }
}
node {
  name: "FeatureExtractor/MobilenetV2/expanded_conv_2/expand/weights/Initializer/truncated_normal/mul"
  op: "Mul"
  input: "FeatureExtractor/MobilenetV2/expanded_conv_2/expand/weights/Initializer/truncated_normal/TruncatedNormal"
  input: "FeatureExtractor/MobilenetV2/expanded_conv_2/expand/weights/Initializer/truncated_normal/stddev"
  attr {
    key: "T"
    value {
      type: DT_FLOAT
    }
  }
  attr {
    key: "_class"
    value {
      list {
        s: "loc:@FeatureExtractor/MobilenetV2/expanded_conv_2/expand/weights"
      }
    }
  }
}
node {
  name: "FeatureExtractor/MobilenetV2/expanded_conv_2/expand/weights/Initializer/truncated_normal"
  op: "Add"
  input: "FeatureExtractor/MobilenetV2/expanded_conv_2/expand/weights/Initializer/truncated_normal/mul"
  input: "FeatureExtractor/MobilenetV2/expanded_conv_2/expand/weights/Initializer/truncated_normal/mean"
  attr {
    key: "T"
    value {
      type: DT_FLOAT
    }
  }
  attr {
    key: "_class"
    value {
      list {
        s: "loc:@FeatureExtractor/MobilenetV2/expanded_conv_2/expand/weights"
      }
    }
  }
}
node {
  name: "FeatureExtractor/MobilenetV2/expanded_conv_2/expand/weights"
  op: "VariableV2"
  attr {
    key: "_class"
    value {
      list {
        s: "loc:@FeatureExtractor/MobilenetV2/expanded_conv_2/expand/weights"
      }
    }
  }
  attr {
    key: "container"
    value {
      s: ""
    }
  }
  attr {
    key: "dtype"
    value {
      type: DT_FLOAT
    }
  }
  attr {
    key: "shape"
    value {
      shape {
        dim {
          size: 1
        }
        dim {
          size: 1
        }
        dim {
          size: 24
        }
        dim {
          size: 144
        }
      }
    }
  }
  attr {
    key: "shared_name"
    value {
      s: ""
    }
  }
}
node {
  name: "FeatureExtractor/MobilenetV2/expanded_conv_2/expand/weights/Assign"
  op: "Assign"
  input: "FeatureExtractor/MobilenetV2/expanded_conv_2/expand/weights"
  input: "FeatureExtractor/MobilenetV2/expanded_conv_2/expand/weights/Initializer/truncated_normal"
  attr {
    key: "T"
    value {
      type: DT_FLOAT
    }
  }
  attr {
    key: "_class"
    value {
      list {
        s: "loc:@FeatureExtractor/MobilenetV2/expanded_conv_2/expand/weights"
      }
    }
  }
  attr {
    key: "use_locking"
    value {
      b: true
    }
  }
  attr {
    key: "validate_shape"
    value {
      b: true
    }
  }
}
node {
  name: "FeatureExtractor/MobilenetV2/expanded_conv_2/expand/weights/read"
  op: "Identity"
  input: "FeatureExtractor/MobilenetV2/expanded_conv_2/expand/weights"
  attr {
    key: "T"
    value {
      type: DT_FLOAT
    }
  }
  attr {
    key: "_class"
    value {
      list {
        s: "loc:@FeatureExtractor/MobilenetV2/expanded_conv_2/expand/weights"
      }
    }
  }
}
node {
  name: "FeatureExtractor/MobilenetV2/expanded_conv_2/expand/kernel/Regularizer/l2_regularizer/scale"
  op: "Const"
  attr {
    key: "dtype"
    value {
      type: DT_FLOAT
    }
  }
  attr {
    key: "value"
    value {
      tensor {
        dtype: DT_FLOAT
        tensor_shape {
        }
        float_val: 3.9999998989515007e-05
      }
    }
  }
}
node {
  name: "FeatureExtractor/MobilenetV2/expanded_conv_2/expand/kernel/Regularizer/l2_regularizer/L2Loss"
  op: "L2Loss"
  input: "FeatureExtractor/MobilenetV2/expanded_conv_2/expand/weights/read"
  attr {
    key: "T"
    value {
      type: DT_FLOAT
    }
  }
}
node {
  name: "FeatureExtractor/MobilenetV2/expanded_conv_2/expand/kernel/Regularizer/l2_regularizer"
  op: "Mul"
  input: "FeatureExtractor/MobilenetV2/expanded_conv_2/expand/kernel/Regularizer/l2_regularizer/scale"
  input: "FeatureExtractor/MobilenetV2/expanded_conv_2/expand/kernel/Regularizer/l2_regularizer/L2Loss"
  attr {
    key: "T"
    value {
      type: DT_FLOAT
    }
  }
}
node {
  name: "FeatureExtractor/MobilenetV2/expanded_conv_2/expand/dilation_rate"
  op: "Const"
  attr {
    key: "dtype"
    value {
      type: DT_INT32
    }
  }
  attr {
    key: "value"
    value {
      tensor {
        dtype: DT_INT32
        tensor_shape {
          dim {
            size: 2
          }
        }
        tensor_content: "\001\000\000\000\001\000\000\000"
      }
    }
  }
}
node {
  name: "FeatureExtractor/MobilenetV2/expanded_conv_2/expand/Conv2D"
  op: "Conv2D"
  input: "FeatureExtractor/MobilenetV2/expanded_conv_2/input"
  input: "FeatureExtractor/MobilenetV2/expanded_conv_2/expand/weights/read"
  attr {
    key: "T"
    value {
      type: DT_FLOAT
    }
  }
  attr {
    key: "data_format"
    value {
      s: "NHWC"
    }
  }
  attr {
    key: "dilations"
    value {
      list {
        i: 1
        i: 1
        i: 1
        i: 1
      }
    }
  }
  attr {
    key: "explicit_paddings"
    value {
      list {
      }
    }
  }
  attr {
    key: "padding"
    value {
      s: "SAME"
    }
  }
  attr {
    key: "strides"
    value {
      list {
        i: 1
        i: 1
        i: 1
        i: 1
      }
    }
  }
  attr {
    key: "use_cudnn_on_gpu"
    value {
      b: true
    }
  }
}
node {
  name: "FeatureExtractor/MobilenetV2/expanded_conv_2/expand/BatchNorm/gamma/Initializer/ones"
  op: "Const"
  attr {
    key: "_class"
    value {
      list {
        s: "loc:@FeatureExtractor/MobilenetV2/expanded_conv_2/expand/BatchNorm/gamma"
      }
    }
  }
  attr {
    key: "dtype"
    value {
      type: DT_FLOAT
    }
  }
  attr {
    key: "value"
    value {
      tensor {
        dtype: DT_FLOAT
        tensor_shape {
          dim {
            size: 144
          }
…
  name: "save/Assign_210"
  op: "Assign"
  input: "FeatureExtractor/MobilenetV2/expanded_conv_4/project/BatchNorm/gamma"
  input: "save/RestoreV2:210"
  attr {
    key: "T"
    value {
      type: DT_FLOAT
    }
  }
  attr {
    key: "_class"
    value {
      list {
        s: "loc:@FeatureExtractor/MobilenetV2/expanded_conv_4/project/BatchNorm/gamma"
      }
    }
  }
  attr {
    key: "use_locking"
    value {
      b: true
    }
  }
  attr {
    key: "validate_shape"
    value {
      b: true
    }
  }
}
node {
  name: "save/Assign_211"
  op: "Assign"
  input: "FeatureExtractor/MobilenetV2/expanded_conv_4/project/BatchNorm/moving_mean"
  input: "save/RestoreV2:211"
  attr {
    key: "T"
    value {
      type: DT_FLOAT
    }
  }
  attr {
    key: "_class"
    value {
      list {
        s: "loc:@FeatureExtractor/MobilenetV2/expanded_conv_4/project/BatchNorm/moving_mean"
      }
    }
  }
  attr {
    key: "use_locking"
    value {
      b: true
    }
  }
  attr {
    key: "validate_shape"
    value {
      b: true
    }
  }
}
node {
  name: "save/Assign_212"
  op: "Assign"
  input: "FeatureExtractor/MobilenetV2/expanded_conv_4/project/BatchNorm/moving_variance"
  input: "save/RestoreV2:212"
  attr {
    key: "T"
    value {
      type: DT_FLOAT
    }
  }
  attr {
    key: "_class"
    value {
      list {
        s: "loc:@FeatureExtractor/MobilenetV2/expanded_conv_4/project/BatchNorm/moving_variance"
      }
    }
  }
  attr {
    key: "use_locking"
    value {
      b: true
    }
  }
  attr {
    key: "validate_shape"
    value {
      b: true
    }
  }
}
node {
  name: "save/Assign_213"
  op: "Assign"
  input: "FeatureExtractor/MobilenetV2/expanded_conv_4/project/weights"
  input: "save/RestoreV2:213"
  attr {
    key: "T"
    value {
      type: DT_FLOAT
    }
  }
  attr {
    key: "_class"
    value {
      list {
        s: "loc:@FeatureExtractor/MobilenetV2/expanded_conv_4/project/weights"
      }
    }
  }
  attr {
    key: "use_locking"
    value {
      b: true
    }
  }
  attr {
    key: "validate_shape"
    value {
      b: true
    }
  }
}
node {
  name: "save/Assign_214"
  op: "Assign"
  input: "FeatureExtractor/MobilenetV2/expanded_conv_5/depthwise/BatchNorm/beta"
  input: "save/RestoreV2:214"
  attr {
    key: "T"
    value {
      type: DT_FLOAT
    }
  }
  attr {
    key: "_class"
    value {
      list {
        s: "loc:@FeatureExtractor/MobilenetV2/expanded_conv_5/depthwise/BatchNorm/beta"
      }
    }
  }
  attr {
    key: "use_locking"
    value {
      b: true
    }
  }
  attr {
    key: "validate_shape"
    value {
      b: true
    }
  }
}
node {
  name: "save/Assign_215"
  op: "Assign"
  input: "FeatureExtractor/MobilenetV2/expanded_conv_5/depthwise/BatchNorm/gamma"
  input: "save/RestoreV2:215"
  attr {
    key: "T"
    value {
      type: DT_FLOAT
    }
  }
  attr {
    key: "_class"
    value {
      list {
        s: "loc:@FeatureExtractor/MobilenetV2/expanded_conv_5/depthwise/BatchNorm/gamma"
      }
    }
  }
  attr {
    key: "use_locking"
    value {
      b: true
    }
  }
  attr {
    key: "validate_shape"
    value {
      b: true
    }
  }
}
node {
  name: "save/Assign_216"
  op: "Assign"
  input: "FeatureExtractor/MobilenetV2/expanded_conv_5/depthwise/BatchNorm/moving_mean"
  input: "save/RestoreV2:216"
  attr {
    key: "T"
    value {
      type: DT_FLOAT
    }
  }
  attr {
    key: "_class"
    value {
      list {
        s: "loc:@FeatureExtractor/MobilenetV2/expanded_conv_5/depthwise/BatchNorm/moving_mean"
      }
    }
  }
  attr {
    key: "use_locking"
    value {
      b: true
    }
  }
  attr {
    key: "validate_shape"
    value {
      b: true
    }
  }
}
node {
  name: "save/Assign_217"
  op: "Assign"
  input: "FeatureExtractor/MobilenetV2/expanded_conv_5/depthwise/BatchNorm/moving_variance"
  input: "save/RestoreV2:217"
  attr {
    key: "T"
    value {
      type: DT_FLOAT
    }
  }
  attr {
    key: "_class"
    value {
      list {
        s: "loc:@FeatureExtractor/MobilenetV2/expanded_conv_5/depthwise/BatchNorm/moving_variance"
      }
    }
  }
  attr {
    key: "use_locking"
    value {
      b: true
    }
  }
  attr {
    key: "validate_shape"
    value {
      b: true
    }
  }
}
node {
  name: "save/Assign_218"
  op: "Assign"
  input: "FeatureExtractor/MobilenetV2/expanded_conv_5/depthwise/depthwise_weights"
  input: "save/RestoreV2:218"
  attr {
    key: "T"
    value {
      type: DT_FLOAT
    }
  }
  attr {
    key: "_class"
    value {
      list {
        s: "loc:@FeatureExtractor/MobilenetV2/expanded_conv_5/depthwise/depthwise_weights"
      }
    }
  }
  attr {
    key: "use_locking"
    value {
      b: true
    }
  }
  attr {
    key: "validate_shape"
    value {
      b: true
    }
  }
}
node {
  name: "save/Assign_219"
  op: "Assign"
  input: "FeatureExtractor/MobilenetV2/expanded_conv_5/expand/BatchNorm/beta"
  input: "save/RestoreV2:219"
  attr {
    key: "T"
    value {
      type: DT_FLOAT
    }
  }
  attr {
    key: "_class"
    value {
      list {
        s: "loc:@FeatureExtractor/MobilenetV2/expanded_conv_5/expand/BatchNorm/beta"
      }
    }
  }
  attr {
    key: "use_locking"
    value {
      b: true
    }
  }
  attr {
    key: "validate_shape"
    value {
      b: true
    }
  }
}
node {
  name: "save/Assign_220"
  op: "Assign"
  input: "FeatureExtractor/MobilenetV2/expanded_conv_5/expand/BatchNorm/gamma"
  input: "save/RestoreV2:220"
  attr {
    key: "T"
    value {
      type: DT_FLOAT
    }
  }
  attr {
    key: "_class"
    value {
      list {
        s: "loc:@FeatureExtractor/MobilenetV2/expanded_conv_5/expand/BatchNorm/gamma"
      }
    }
  }
  attr {
    key: "use_locking"
    value {
      b: true
    }
  }
  attr {
    key: "validate_shape"
    value {
      b: true
    }
  }
}
node {
  name: "save/Assign_221"
  op: "Assign"
  input: "FeatureExtractor/MobilenetV2/expanded_conv_5/expand/BatchNorm/moving_mean"
  input: "save/RestoreV2:221"
  attr {
    key: "T"
    value {
      type: DT_FLOAT
    }
  }
  attr {
    key: "_class"
    value {
      list {
        s: "loc:@FeatureExtractor/MobilenetV2/expanded_conv_5/expand/BatchNorm/moving_mean"
      }
    }
  }
  attr {
    key: "use_locking"
    value {
      b: true
    }
  }
  attr {
    key: "validate_shape"
    value {
      b: true
    }
  }
}
node {
  name: "save/Assign_222"
  op: "Assign"
  input: "FeatureExtractor/MobilenetV2/expanded_conv_5/expand/BatchNorm/moving_variance"
  input: "save/RestoreV2:222"
  attr {
    key: "T"
    value {
      type: DT_FLOAT
    }
  }
  attr {
    key: "_class"
    value {
      list {
        s: "loc:@FeatureExtractor/MobilenetV2/expanded_conv_5/expand/BatchNorm/moving_variance"
      }
    }
  }
  attr {
    key: "use_locking"
    value {
      b: true
    }
  }
  attr {
    key: "validate_shape"
    value {
      b: true
    }
  }
}
node {
  name: "save/Assign_223"
  op: "Assign"
  input: "FeatureExtractor/MobilenetV2/expanded_conv_5/expand/weights"
  input: "save/RestoreV2:223"
  attr {
    key: "T"
    value {
      type: DT_FLOAT
    }
  }
  attr {
    key: "_class"
    value {
      list {
        s: "loc:@FeatureExtractor/MobilenetV2/expanded_conv_5/expand/weights"
      }
    }
  }
  attr {
    key: "use_locking"
    value {
      b: true
    }
  }
  attr {
    key: "validate_shape"
    value {
      b: true
    }
  }
}
node {
  name: "save/Assign_224"
  op: "Assign"
  input: "FeatureExtractor/MobilenetV2/expanded_conv_5/project/BatchNorm/beta"
  input: "save/RestoreV2:224"
  attr {
    key: "T"
    value {
      type: DT_FLOAT
    }
  }
  attr {
    key: "_class"
    value {
      list {
        s: "loc:@FeatureExtractor/MobilenetV2/expanded_conv_5/project/BatchNorm/beta"
      }
    }
  }
  attr {
    key: "use_locking"
    value {
      b: true
    }
  }
  attr {
    key: "validate_shape"
    value {
      b: true
    }
  }
}
node {
  name: "save/Assign_225"
  op: "Assign"
  input: "FeatureExtractor/MobilenetV2/expanded_conv_5/project/BatchNorm/gamma"
  input: "save/RestoreV2:225"
  attr {
    key: "T"
    value {
      type: DT_FLOAT
    }
  }
  attr {
    key: "_class"
    value {
      list {
        s: "loc:@FeatureExtractor/MobilenetV2/expanded_conv_5/project/BatchNorm/gamma"
      }
    }
  }
  attr {
    key: "use_locking"
    value {
      b: true
    }
  }
  attr {
    key: "validate_shape"
    value {
      b: true
    }
  }
}
node {
  name: "save/Assign_226"
  op: "Assign"
  input: "FeatureExtractor/MobilenetV2/expanded_conv_5/project/BatchNorm/moving_mean"
  input: "save/RestoreV2:226"
  attr {
    key: "T"
    value {
      type: DT_FLOAT
    }
  }
  attr {
    key: "_class"
    value {
      list {
        s: "loc:@FeatureExtractor/MobilenetV2/expanded_conv_5/project/BatchNorm/moving_mean"
      }
    }
  }
  attr {
    key: "use_locking"
    value {
      b: true
    }
  }
  attr {
    key: "validate_shape"
    value {
      b: true
    }
  }
}
node {
  name: "save/Assign_227"
  op: "Assign"
  input: "FeatureExtractor/MobilenetV2/expanded_conv_5/project/BatchNorm/moving_variance"
  input: "save/RestoreV2:227"
  attr {
    key: "T"
    value {
      type: DT_FLOAT
    }
  }
  attr {
    key: "_class"
    value {
      list {
        s: "loc:@FeatureExtractor/MobilenetV2/expanded_conv_5/project/BatchNorm/moving_variance"
      }
    }
  }
  attr {
    key: "use_locking"
    value {
      b: true
    }
  }
  attr {
    key: "validate_shape"
    value {
      b: true
    }
  }
}
node {
  name: "save/Assign_228"
  op: "Assign"
  input: "FeatureExtractor/MobilenetV2/expanded_conv_5/project/weights"
  input: "save/RestoreV2:228"
  attr {
    key: "T"
    value {
      type: DT_FLOAT
    }
  }
  attr {
    key: "_class"
    value {
      list {
        s: "loc:@FeatureExtractor/MobilenetV2/expanded_conv_5/project/weights"
      }
    }
  }
  attr {
    key: "use_locking"
    value {
      b: true
    }
  }
  attr {
    key: "validate_shape"
    value {
      b: true
    }
  }
}
node {
  name: "save/Assign_229"
  op: "Assign"
  input: "FeatureExtractor/MobilenetV2/expanded_conv_6/depthwise/BatchNorm/beta"
  input: "save/RestoreV2:229"
  attr {
    key: "T"
    value {
      type: DT_FLOAT
    }
  }
  attr {
    key: "_class"
    value {
      list {
        s: "loc:@FeatureExtractor/MobilenetV2/expanded_conv_6/depthwise/BatchNorm/beta"
      }
    }
  }
  attr {
    key: "use_locking"
    value {
      b: true
    }
  }
  attr {
    key: "validate_shape"
    value {
      b: true
    }
  }
}
node {
  name: "save/Assign_230"
  op: "Assign"
  input: "FeatureExtractor/MobilenetV2/expanded_conv_6/depthwise/BatchNorm/gamma"
  input: "save/RestoreV2:230"
  attr {
    key: "T"
    value {
      type: DT_FLOAT
    }
  }
  attr {
    key: "_class"
    value {
      list {
        s: "loc:@FeatureExtractor/MobilenetV2/expanded_conv_6/depthwise/BatchNorm/gamma"
      }
    }
  }
  attr {
    key: "use_locking"
    value {
      b: true
    }
  }
  attr {
    key: "validate_shape"
    value {
      b: true
    }
  }
}
node {
  name: "save/Assign_231"
  op: "Assign"
  input: "FeatureExtractor/MobilenetV2/expanded_conv_6/depthwise/BatchNorm/moving_mean"
  input: "save/RestoreV2:231"
  attr {
    key: "T"
    value {
      type: DT_FLOAT
    }
  }
  attr {
    key: "_class"
    value {
      list {
        s: "loc:@FeatureExtractor/MobilenetV2/expanded_conv_6/depthwise/BatchNorm/moving_mean"
      }
    }
  }
  attr {
    key: "use_locking"
    value {
      b: true
    }
  }
  attr {
    key: "validate_shape"
    value {
      b: true
    }
  }
}
node {
  name: "save/Assign_232"
  op: "Assign"
  input: "FeatureExtractor/MobilenetV2/expanded_conv_6/depthwise/BatchNorm/moving_variance"
  input: "save/RestoreV2:232"
  attr {
    key: "T"
    value {
      type: DT_FLOAT
    }
  }
  attr {
    key: "_class"
    value {
      list {
        s: "loc:@FeatureExtractor/MobilenetV2/expanded_conv_6/depthwise/BatchNorm/moving_variance"
      }
    }
  }
  attr {
    key: "use_locking"
    value {
      b: true
    }
  }
  attr {
    key: "validate_shape"
    value {
      b: true
    }
  }
}
node {
  name: "save/Assign_233"
  op: "Assign"
  input: "FeatureExtractor/MobilenetV2/expanded_conv_6/depthwise/depthwise_weights"
  input: "save/RestoreV2:233"
  attr {
    key: "T"
    value {
      type: DT_FLOAT
    }
  }
  attr {
    key: "_class"
    value {
      list {
        s: "loc:@FeatureExtractor/MobilenetV2/expanded_conv_6/depthwise/depthwise_weights"
      }
    }
  }
  attr {
    key: "use_locking"
    value {
      b: true
    }
  }
  attr {
    key: "validate_shape"
    value {
      b: true
    }
  }
}
node {
  name: "save/Assign_234"
  op: "Assign"
  input: "FeatureExtractor/MobilenetV2/expanded_conv_6/expand/BatchNorm/beta"
  input: "save/RestoreV2:234"
  attr {
    key: "T"
    value {
      type: DT_FLOAT
    }
  }
  attr {
    key: "_class"
    value {
      list {
        s: "loc:@FeatureExtractor/MobilenetV2/expanded_conv_6/expand/BatchNorm/beta"
      }
    }
  }
  attr {
    key: "use_locking"
    value {
      b: true
    }
  }
  attr {
    key: "validate_shape"
    value {
      b: true
    }
  }
}
node {
  name: "save/Assign_235"
  op: "Assign"
  input: "FeatureExtractor/MobilenetV2/expanded_conv_6/expand/BatchNorm/gamma"
  input: "save/RestoreV2:235"
  attr {
    key: "T"
    value {
      type: DT_FLOAT
    }
  }
  attr {
    key: "_class"
    value {
      list {
        s: "loc:@FeatureExtractor/MobilenetV2/expanded_conv_6/expand/BatchNorm/gamma"
      }
    }
  }
  attr {
    key: "use_locking"
    value {
      b: true
    }
  }
  attr {
    key: "validate_shape"
    value {
      b: true
    }
  }
}
node {
  name: "save/Assign_236"
  op: "Assign"
  input: "FeatureExtractor/MobilenetV2/expanded_conv_6/expand/BatchNorm/moving_mean"
  input: "save/RestoreV2:236"
  attr {
    key: "T"
    value {
      type: DT_FLOAT
    }
  }
  attr {
    key: "_class"
    value {
      list {
        s: "loc:@FeatureExtractor/MobilenetV2/expanded_conv_6/expand/BatchNorm/moving_mean"
      }
    }
  }
  attr {
    key: "use_locking"
    value {
      b: true
    }
  }
  attr {
    key: "validate_shape"
    value {
      b: true
    }
  }
}
node {
  name: "save/Assign_237"
  op: "Assign"
  input: "FeatureExtractor/MobilenetV2/expanded_conv_6/expand/BatchNorm/moving_variance"
  input: "save/RestoreV2:237"
  attr {
    key: "T"
    value {
      type: DT_FLOAT
    }
  }
  attr {
    key: "_class"
    value {
      list {
        s: "loc:@FeatureExtractor/MobilenetV2/expanded_conv_6/expand/BatchNorm/moving_variance"
      }
    }
  }
  attr {
    key: "use_locking"
    value {
      b: true
    }
  }
  attr {
    key: "validate_shape"
    value {
      b: true
    }
  }
}
node {
  name: "save/Assign_238"
  op: "Assign"
  input: "FeatureExtractor/MobilenetV2/expanded_conv_6/expand/weights"
  input: "save/RestoreV2:238"
  attr {
    key: "T"
    value {
      type: DT_FLOAT
    }
  }
  attr {
    key: "_class"
    value {
      list {
        s: "loc:@FeatureExtractor/MobilenetV2/expanded_conv_6/expand/weights"
      }
    }
  }
  attr {
    key: "use_locking"
    value {
      b: true
    }
  }
  attr {
    key: "validate_shape"
    value {
      b: true
    }
  }
}
node {
  name: "save/Assign_239"
  op: "Assign"
  input: "FeatureExtractor/MobilenetV2/expanded_conv_6/project/BatchNorm/beta"
  input: "save/RestoreV2:239"
  attr {
    key: "T"
    value {
      type: DT_FLOAT
    }
  }
  attr {
    key: "_class"
    value {
      list {
        s: "loc:@FeatureExtractor/MobilenetV2/expanded_conv_6/project/BatchNorm/beta"
      }
    }
  }
  attr {
    key: "use_locking"
    value {
      b: true
    }
  }
  attr {
    key: "validate_shape"
    value {
      b: true
    }
  }
}
node {
  name: "save/Assign_240"
  op: "Assign"
  input: "FeatureExtractor/MobilenetV2/expanded_conv_6/project/BatchNorm/gamma"
  input: "save/RestoreV2:240"
  attr {
    key: "T"
    value {
      type: DT_FLOAT
    }
  }
  attr {
    key: "_class"
    value {
      list {
        s: "loc:@FeatureExtractor/MobilenetV2/expanded_conv_6/project/BatchNorm/gamma"
      }
    }
  }
  attr {
    key: "use_locking"
    value {
      b: true
    }
  }
  attr {
    key: "validate_shape"
    value {
      b: true
    }
  }
}
node {
  name: "save/Assign_241"
  op: "Assign"
  input: "FeatureExtractor/MobilenetV2/expanded_conv_6/project/BatchNorm/moving_mean"
  input: "save/RestoreV2:241"
  attr {
    key: "T"
    value {
      type: DT_FLOAT
    }
  }
  attr {
    key: "_class"
    value {
      list {
        s: "loc:@FeatureExtractor/MobilenetV2/expanded_conv_6/project/BatchNorm/moving_mean"
      }
    }
  }
  attr {
    key: "use_locking"
    value {
      b: true
    }
  }
  attr {
    key: "validate_shape"
    value {
      b: true
    }
  }
}
node {
  name: "save/Assign_242"
  op: "Assign"
  input: "FeatureExtractor/MobilenetV2/expanded_conv_6/project/BatchNorm/moving_variance"
  input: "save/RestoreV2:242"
  attr {
    key: "T"
    value {
      type: DT_FLOAT
    }
  }
  attr {
    key: "_class"
    value {
      list {
        s: "loc:@FeatureExtractor/MobilenetV2/expanded_conv_6/project/BatchNorm/moving_variance"
      }
    }
  }
  attr {
    key: "use_locking"
    value {
      b: true
    }
  }
  attr {
    key: "validate_shape"
    value {
      b: true
    }
  }
}
node {
  name: "save/Assign_243"
  op: "Assign"
  input: "FeatureExtractor/MobilenetV2/expanded_conv_6/project/weights"
  input: "save/RestoreV2:243"
  attr {
    key: "T"
    value {
      type: DT_FLOAT
    }
  }
  attr {
    key: "_class"
    value {
      list {
        s: "loc:@FeatureExtractor/MobilenetV2/expanded_conv_6/project/weights"
      }
    }
  }
  attr {
    key: "use_locking"
    value {
      b: true
    }
  }
  attr {
    key: "validate_shape"
    value {
      b: true
    }
  }
}
node {
  name: "save/Assign_244"
  op: "Assign"
  input: "FeatureExtractor/MobilenetV2/expanded_conv_7/depthwise/BatchNorm/beta"
  input: "save/RestoreV2:244"
  attr {
    key: "T"
    value {
      type: DT_FLOAT
    }
  }
  attr {
    key: "_class"
    value {
      list {
        s: "loc:@FeatureExtractor/MobilenetV2/expanded_conv_7/depthwise/BatchNorm/beta"
      }
    }
  }
  attr {
    key: "use_locking"
    value {
      b: true
    }
  }
  attr {
    key: "validate_shape"
    value {
      b: true
    }
  }
}
node {
  name: "save/Assign_245"
  op: "Assign"
  input: "FeatureExtractor/MobilenetV2/expanded_conv_7/depthwise/BatchNorm/gamma"
  input: "save/RestoreV2:245"
  attr {
    key: "T"
    value {
      type: DT_FLOAT
    }
  }
  attr {
    key: "_class"
    value {
      list {
        s: "loc:@FeatureExtractor/MobilenetV2/expanded_conv_7/depthwise/BatchNorm/gamma"
      }
    }
  }
  attr {
    key: "use_locking"
    value {
      b: true
    }
  }
  attr {
    key: "validate_shape"
    value {
      b: true
    }
  }
}
node {
  name: "save/Assign_246"
  op: "Assign"
  input: "FeatureExtractor/MobilenetV2/expanded_conv_7/depthwise/BatchNorm/moving_mean"
  input: "save/RestoreV2:246"
  attr {
    key: "T"
    value {
      type: DT_FLOAT
    }
  }
  attr {
    key: "_class"
    value {
      list {
        s: "loc:@FeatureExtractor/MobilenetV2/expanded_conv_7/depthwise/BatchNorm/moving_mean"
      }
    }
  }
  attr {
    key: "use_locking"
    value {
      b: true
    }
  }
  attr {
    key: "validate_shape"
    value {
      b: true
    }
  }
}
node {
  name: "save/Assign_247"
  op: "Assign"
  input: "FeatureExtractor/MobilenetV2/expanded_conv_7/depthwise/BatchNorm/moving_variance"
  input: "save/RestoreV2:247"
  attr {
    key: "T"
    value {
      type: DT_FLOAT
    }
  }
  attr {
    key: "_class"
    value {
      list {
        s: "loc:@FeatureExtractor/MobilenetV2/expanded_conv_7/depthwise/BatchNorm/moving_variance"
      }
    }
  }
  attr {
    key: "use_locking"
    value {
      b: true
    }
  }
  attr {
    key: "validate_shape"
    value {
      b: true
    }
  }
}
node {
  name: "save/Assign_248"
  op: "Assign"
  input: "FeatureExtractor/MobilenetV2/expanded_conv_7/depthwise/depthwise_weights"
  input: "save/RestoreV2:248"
  attr {
    key: "T"
    value {
      type: DT_FLOAT
    }
  }
  attr {
    key: "_class"
    value {
      list {
        s: "loc:@FeatureExtractor/MobilenetV2/expanded_conv_7/depthwise/depthwise_weights"
      }
    }
  }
  attr {
    key: "use_locking"
    value {
      b: true
    }
  }
  attr {
    key: "validate_shape"
    value {
      b: true
    }
  }
}
node {
  name: "save/Assign_249"
  op: "Assign"
  input: "FeatureExtractor/MobilenetV2/expanded_conv_7/expand/BatchNorm/beta"
  input: "save/RestoreV2:249"
  attr {
    key: "T"
    value {
      type: DT_FLOAT
    }
  }
  attr {
    key: "_class"
    value {
      list {
        s: "loc:@FeatureExtractor/MobilenetV2/expanded_conv_7/expand/BatchNorm/beta"
      }
    }
  }
  attr {
    key: "use_locking"
    value {
      b: true
    }
  }
  attr {
    key: "validate_shape"
    value {
      b: true
    }
  }
}
node {
  name: "save/Assign_250"
  op: "Assign"
  input: "FeatureExtractor/MobilenetV2/expanded_conv_7/expand/BatchNorm/gamma"
  input: "save/RestoreV2:250"
  attr {
    key: "T"
    value {
      type: DT_FLOAT
    }
  }
  attr {
    key: "_class"
    value {
      list {
        s: "loc:@FeatureExtractor/MobilenetV2/expanded_conv_7/expand/BatchNorm/gamma"
      }
    }
  }
  attr {
    key: "use_locking"
    value {
      b: true
    }
  }
  attr {
    key: "validate_shape"
    value {
      b: true
    }
  }
}
node {
  name: "save/Assign_251"
  op: "Assign"
  input: "FeatureExtractor/MobilenetV2/expanded_conv_7/expand/BatchNorm/moving_mean"
  input: "save/RestoreV2:251"
  attr {
    key: "T"
    value {
      type: DT_FLOAT
    }
  }
  attr {
    key: "_class"
    value {
      list {
        s: "loc:@FeatureExtractor/MobilenetV2/expanded_conv_7/expand/BatchNorm/moving_mean"
      }
    }
  }
  attr {
    key: "use_locking"
    value {
      b: true
    }
  }
  attr {
    key: "validate_shape"
    value {
      b: true
    }
  }
}
node {
  name: "save/Assign_252"
  op: "Assign"
  input: "FeatureExtractor/MobilenetV2/expanded_conv_7/expand/BatchNorm/moving_variance"
  input: "save/RestoreV2:252"
  attr {
    key: "T"
    value {
      type: DT_FLOAT
    }
  }
  attr {
    key: "_class"
    value {
      list {
        s: "loc:@FeatureExtractor/MobilenetV2/expanded_conv_7/expand/BatchNorm/moving_variance"
      }
    }
  }
  attr {
    key: "use_locking"
    value {
      b: true
    }
  }
  attr {
    key: "validate_shape"
    value {
      b: true
    }
  }
}
node {
  name: "save/Assign_253"
  op: "Assign"
  input: "FeatureExtractor/MobilenetV2/expanded_conv_7/expand/weights"
  input: "save/RestoreV2:253"
  attr {
    key: "T"
    value {
      type: DT_FLOAT
    }
  }
  attr {
    key: "_class"
    value {
      list {
        s: "loc:@FeatureExtractor/MobilenetV2/expanded_conv_7/expand/weights"
      }
    }
  }
  attr {
    key: "use_locking"
    value {
      b: true
    }
  }
  attr {
    key: "validate_shape"
    value {
      b: true
    }
  }
}
node {
  name: "save/Assign_254"
  op: "Assign"
  input: "FeatureExtractor/MobilenetV2/expanded_conv_7/project/BatchNorm/beta"
  input: "save/RestoreV2:254"
  attr {
    key: "T"
    value {
      type: DT_FLOAT
    }
  }
  attr {
    key: "_class"
    value {
      list {
        s: "loc:@FeatureExtractor/MobilenetV2/expanded_conv_7/project/BatchNorm/beta"
      }
    }
  }
  attr {
    key: "use_locking"
    value {
      b: true
    }
  }
  attr {
    key: "validate_shape"
    value {
      b: true
    }
  }
}
node {
  name: "save/Assign_255"
  op: "Assign"
  input: "FeatureExtractor/MobilenetV2/expanded_conv_7/project/BatchNorm/gamma"
  input: "save/RestoreV2:255"
  attr {
    key: "T"
    value {
      type: DT_FLOAT
    }
  }
  attr {
    key: "_class"
    value {
      list {
        s: "loc:@FeatureExtractor/MobilenetV2/expanded_conv_7/project/BatchNorm/gamma"
      }
    }
  }
  attr {
    key: "use_locking"
    value {
      b: true
    }
  }
  attr {
    key: "validate_shape"
    value {
      b: true
    }
  }
}
node {
  name: "save/Assign_256"
  op: "Assign"
  input: "FeatureExtractor/MobilenetV2/expanded_conv_7/project/BatchNorm/moving_mean"
  input: "save/RestoreV2:256"
  attr {
    key: "T"
    value {
      type: DT_FLOAT
    }
  }
  attr {
    key: "_class"
    value {
      list {
        s: "loc:@FeatureExtractor/MobilenetV2/expanded_conv_7/project/BatchNorm/moving_mean"
      }
    }
  }
  attr {
    key: "use_locking"
    value {
      b: true
    }
  }
  attr {
    key: "validate_shape"
    value {
      b: true
    }
  }
}
node {
  name: "save/Assign_257"
  op: "Assign"
  input: "FeatureExtractor/MobilenetV2/expanded_conv_7/project/BatchNorm/moving_variance"
  input: "save/RestoreV2:257"
  attr {
    key: "T"
    value {
      type: DT_FLOAT
    }
  }
  attr {
    key: "_class"
    value {
      list {
        s: "loc:@FeatureExtractor/MobilenetV2/expanded_conv_7/project/BatchNorm/moving_variance"
      }
    }
  }
  attr {
    key: "use_locking"
    value {
      b: true
    }
  }
  attr {
    key: "validate_shape"
    value {
      b: true
    }
  }
}
node {
  name: "save/Assign_258"
  op: "Assign"
  input: "FeatureExtractor/MobilenetV2/expanded_conv_7/project/weights"
  input: "save/RestoreV2:258"
  attr {
    key: "T"
    value {
      type: DT_FLOAT
    }
  }
  attr {
    key: "_class"
    value {
      list {
        s: "loc:@FeatureExtractor/MobilenetV2/expanded_conv_7/project/weights"
      }
    }
  }
  attr {
    key: "use_locking"
    value {
      b: true
    }
  }
  attr {
    key: "validate_shape"
    value {
      b: true
    }
  }
}
node {
  name: "save/Assign_259"
  op: "Assign"
  input: "FeatureExtractor/MobilenetV2/expanded_conv_8/depthwise/BatchNorm/beta"
  input: "save/RestoreV2:259"
  attr {
    key: "T"
    value {
      type: DT_FLOAT
    }
  }
  attr {
    key: "_class"
    value {
      list {
        s: "loc:@FeatureExtractor/MobilenetV2/expanded_conv_8/depthwise/BatchNorm/beta"
      }
    }
  }
  attr {
    key: "use_locking"
    value {
      b: true
    }
  }
  attr {
    key: "validate_shape"
    value {
      b: true
    }
  }
}
node {
  name: "save/Assign_260"
  op: "Assign"
  input: "FeatureExtractor/MobilenetV2/expanded_conv_8/depthwise/BatchNorm/gamma"
  input: "save/RestoreV2:260"
  attr {
    key: "T"
    value {
      type: DT_FLOAT
    }
  }
  attr {
    key: "_class"
    value {
      list {
        s: "loc:@FeatureExtractor/MobilenetV2/expanded_conv_8/depthwise/BatchNorm/gamma"
      }
    }
  }
  attr {
    key: "use_locking"
    value {
      b: true
    }
  }
  attr {
    key: "validate_shape"
    value {
      b: true
    }
  }
}
node {
  name: "save/Assign_261"
  op: "Assign"
  input: "FeatureExtractor/MobilenetV2/expanded_conv_8/depthwise/BatchNorm/moving_mean"
  input: "save/RestoreV2:261"
  attr {
    key: "T"
    value {
      type: DT_FLOAT
    }
  }
  attr {
    key: "_class"
    value {
      list {
        s: "loc:@FeatureExtractor/MobilenetV2/expanded_conv_8/depthwise/BatchNorm/moving_mean"
      }
    }
  }
  attr {
    key: "use_locking"
    value {
      b: true
    }
  }
  attr {
    key: "validate_shape"
    value {
      b: true
    }
  }
}
node {
  name: "save/Assign_262"
  op: "Assign"
  input: "FeatureExtractor/MobilenetV2/expanded_conv_8/depthwise/BatchNorm/moving_variance"
  input: "save/RestoreV2:262"
  attr {
    key: "T"
    value {
      type: DT_FLOAT
    }
  }
  attr {
    key: "_class"
    value {
      list {
        s: "loc:@FeatureExtractor/MobilenetV2/expanded_conv_8/depthwise/BatchNorm/moving_variance"
      }
    }
  }
  attr {
    key: "use_locking"
    value {
      b: true
    }
  }
  attr {
    key: "validate_shape"
    value {
      b: true
    }
  }
}
node {
  name: "save/Assign_263"
  op: "Assign"
  input: "FeatureExtractor/MobilenetV2/expanded_conv_8/depthwise/depthwise_weights"
  input: "save/RestoreV2:263"
  attr {
    key: "T"
    value {
      type: DT_FLOAT
    }
  }
  attr {
    key: "_class"
    value {
      list {
        s: "loc:@FeatureExtractor/MobilenetV2/expanded_conv_8/depthwise/depthwise_weights"
      }
    }
  }
  attr {
    key: "use_locking"
    value {
      b: true
    }
  }
  attr {
    key: "validate_shape"
    value {
      b: true
    }
  }
}
node {
  name: "save/Assign_264"
  op: "Assign"
  input: "FeatureExtractor/MobilenetV2/expanded_conv_8/expand/BatchNorm/beta"
  input: "save/RestoreV2:264"
  attr {
    key: "T"
    value {
      type: DT_FLOAT
    }
  }
  attr {
    key: "_class"
    value {
      list {
        s: "loc:@FeatureExtractor/MobilenetV2/expanded_conv_8/expand/BatchNorm/beta"
      }
    }
  }
  attr {
    key: "use_locking"
    value {
      b: true
    }
  }
  attr {
    key: "validate_shape"
    value {
      b: true
    }
  }
}
node {
  name: "save/Assign_265"
  op: "Assign"
  input: "FeatureExtractor/MobilenetV2/expanded_conv_8/expand/BatchNorm/gamma"
  input: "save/RestoreV2:265"
  attr {
    key: "T"
    value {
      type: DT_FLOAT
    }
  }
  attr {
    key: "_class"
    value {
      list {
        s: "loc:@FeatureExtractor/MobilenetV2/expanded_conv_8/expand/BatchNorm/gamma"
      }
    }
  }
  attr {
    key: "use_locking"
    value {
      b: true
    }
  }
  attr {
    key: "validate_shape"
    value {
      b: true
    }
  }
}
node {
  name: "save/Assign_266"
  op: "Assign"
  input: "FeatureExtractor/MobilenetV2/expanded_conv_8/expand/BatchNorm/moving_mean"
  input: "save/RestoreV2:266"
  attr {
    key: "T"
    value {
      type: DT_FLOAT
    }
  }
  attr {
    key: "_class"
    value {
      list {
        s: "loc:@FeatureExtractor/MobilenetV2/expanded_conv_8/expand/BatchNorm/moving_mean"
      }
    }
  }
  attr {
    key: "use_locking"
    value {
      b: true
    }
  }
  attr {
    key: "validate_shape"
    value {
      b: true
    }
  }
}
node {
  name: "save/Assign_267"
  op: "Assign"
  input: "FeatureExtractor/MobilenetV2/expanded_conv_8/expand/BatchNorm/moving_variance"
  input: "save/RestoreV2:267"
  attr {
    key: "T"
    value {
      type: DT_FLOAT
    }
  }
  attr {
    key: "_class"
    value {
      list {
        s: "loc:@FeatureExtractor/MobilenetV2/expanded_conv_8/expand/BatchNorm/moving_variance"
      }
    }
  }
  attr {
    key: "use_locking"
    value {
      b: true
    }
  }
  attr {
    key: "validate_shape"
    value {
      b: true
    }
  }
}
node {
  name: "save/Assign_268"
  op: "Assign"
  input: "FeatureExtractor/MobilenetV2/expanded_conv_8/expand/weights"
  input: "save/RestoreV2:268"
  attr {
    key: "T"
    value {
      type: DT_FLOAT
    }
  }
  attr {
    key: "_class"
    value {
      list {
        s: "loc:@FeatureExtractor/MobilenetV2/expanded_conv_8/expand/weights"
      }
    }
  }
  attr {
    key: "use_locking"
    value {
      b: true
    }
  }
  attr {
    key: "validate_shape"
    value {
      b: true
    }
  }
}
node {
  name: "save/Assign_269"
  op: "Assign"
  input: "FeatureExtractor/MobilenetV2/expanded_conv_8/project/BatchNorm/beta"
  input: "save/RestoreV2:269"
  attr {
    key: "T"
    value {
      type: DT_FLOAT
    }
  }
  attr {
    key: "_class"
    value {
      list {
        s: "loc:@FeatureExtractor/MobilenetV2/expanded_conv_8/project/BatchNorm/beta"
      }
    }
  }
  attr {
    key: "use_locking"
    value {
      b: true
    }
  }
  attr {
    key: "validate_shape"
    value {
      b: true
    }
  }
}
node {
  name: "save/Assign_270"
  op: "Assign"
  input: "FeatureExtractor/MobilenetV2/expanded_conv_8/project/BatchNorm/gamma"
  input: "save/RestoreV2:270"
  attr {
    key: "T"
    value {
      type: DT_FLOAT
    }
  }
  attr {
    key: "_class"
    value {
      list {
        s: "loc:@FeatureExtractor/MobilenetV2/expanded_conv_8/project/BatchNorm/gamma"
      }
    }
  }
  attr {
    key: "use_locking"
    value {
      b: true
    }
  }
  attr {
    key: "validate_shape"
    value {
      b: true
    }
  }
}
node {
  name: "save/Assign_271"
  op: "Assign"
  input: "FeatureExtractor/MobilenetV2/expanded_conv_8/project/BatchNorm/moving_mean"
  input: "save/RestoreV2:271"
  attr {
    key: "T"
    value {
      type: DT_FLOAT
    }
  }
  attr {
    key: "_class"
    value {
      list {
        s: "loc:@FeatureExtractor/MobilenetV2/expanded_conv_8/project/BatchNorm/moving_mean"
      }
    }
  }
  attr {
    key: "use_locking"
    value {
      b: true
    }
  }
  attr {
    key: "validate_shape"
    value {
      b: true
    }
  }
}
node {
  name: "save/Assign_272"
  op: "Assign"
  input: "FeatureExtractor/MobilenetV2/expanded_conv_8/project/BatchNorm/moving_variance"
  input: "save/RestoreV2:272"
  attr {
    key: "T"
    value {
      type: DT_FLOAT
    }
  }
  attr {
    key: "_class"
    value {
      list {
        s: "loc:@FeatureExtractor/MobilenetV2/expanded_conv_8/project/BatchNorm/moving_variance"
      }
    }
  }
  attr {
    key: "use_locking"
    value {
      b: true
    }
  }
  attr {
    key: "validate_shape"
    value {
      b: true
    }
  }
}
node {
  name: "save/Assign_273"
  op: "Assign"
  input: "FeatureExtractor/MobilenetV2/expanded_conv_8/project/weights"
  input: "save/RestoreV2:273"
  attr {
    key: "T"
    value {
      type: DT_FLOAT
    }
  }
  attr {
    key: "_class"
    value {
      list {
        s: "loc:@FeatureExtractor/MobilenetV2/expanded_conv_8/project/weights"
      }
    }
  }
  attr {
    key: "use_locking"
    value {
      b: true
    }
  }
  attr {
    key: "validate_shape"
    value {
      b: true
    }
  }
}
node {
  name: "save/Assign_274"
  op: "Assign"
  input: "FeatureExtractor/MobilenetV2/expanded_conv_9/depthwise/BatchNorm/beta"
  input: "save/RestoreV2:274"
  attr {
    key: "T"
    value {
      type: DT_FLOAT
    }
  }
  attr {
    key: "_class"
    value {
      list {
        s: "loc:@FeatureExtractor/MobilenetV2/expanded_conv_9/depthwise/BatchNorm/beta"
      }
    }
  }
  attr {
    key: "use_locking"
    value {
      b: true
    }
  }
  attr {
    key: "validate_shape"
    value {
      b: true
    }
  }
}
node {
  name: "save/Assign_275"
  op: "Assign"
  input: "FeatureExtractor/MobilenetV2/expanded_conv_9/depthwise/BatchNorm/gamma"
  input: "save/RestoreV2:275"
  attr {
    key: "T"
    value {
      type: DT_FLOAT
    }
  }
  attr {
    key: "_class"
    value {
      list {
        s: "loc:@FeatureExtractor/MobilenetV2/expanded_conv_9/depthwise/BatchNorm/gamma"
      }
    }
  }
  attr {
    key: "use_locking"
    value {
      b: true
    }
  }
  attr {
    key: "validate_shape"
    value {
      b: true
    }
  }
}
node {
  name: "save/Assign_276"
  op: "Assign"
  input: "FeatureExtractor/MobilenetV2/expanded_conv_9/depthwise/BatchNorm/moving_mean"
  input: "save/RestoreV2:276"
  attr {
    key: "T"
    value {
      type: DT_FLOAT
    }
  }
  attr {
    key: "_class"
    value {
      list {
        s: "loc:@FeatureExtractor/MobilenetV2/expanded_conv_9/depthwise/BatchNorm/moving_mean"
      }
    }
  }
  attr {
    key: "use_locking"
    value {
      b: true
    }
  }
  attr {
    key: "validate_shape"
    value {
      b: true
    }
  }
}
node {
  name: "save/Assign_277"
  op: "Assign"
  input: "FeatureExtractor/MobilenetV2/expanded_conv_9/depthwise/BatchNorm/moving_variance"
  input: "save/RestoreV2:277"
  attr {
    key: "T"
    value {
      type: DT_FLOAT
    }
  }
  attr {
    key: "_class"
    value {
      list {
        s: "loc:@FeatureExtractor/MobilenetV2/expanded_conv_9/depthwise/BatchNorm/moving_variance"
      }
    }
  }
  attr {
    key: "use_locking"
    value {
      b: true
    }
  }
  attr {
    key: "validate_shape"
    value {
      b: true
    }
  }
}
node {
  name: "save/Assign_278"
  op: "Assign"
  input: "FeatureExtractor/MobilenetV2/expanded_conv_9/depthwise/depthwise_weights"
  input: "save/RestoreV2:278"
  attr {
    key: "T"
    value {
      type: DT_FLOAT
    }
  }
  attr {
    key: "_class"
    value {
      list {
        s: "loc:@FeatureExtractor/MobilenetV2/expanded_conv_9/depthwise/depthwise_weights"
      }
    }
  }
  attr {
    key: "use_locking"
    value {
      b: true
    }
  }
  attr {
    key: "validate_shape"
    value {
      b: true
    }
  }
}
node {
  name: "save/Assign_279"
  op: "Assign"
  input: "FeatureExtractor/MobilenetV2/expanded_conv_9/expand/BatchNorm/beta"
  input: "save/RestoreV2:279"
  attr {
    key: "T"
    value {
      type: DT_FLOAT
    }
  }
  attr {
    key: "_class"
    value {
      list {
        s: "loc:@FeatureExtractor/MobilenetV2/expanded_conv_9/expand/BatchNorm/beta"
      }
    }
  }
  attr {
    key: "use_locking"
    value {
      b: true
    }
  }
  attr {
    key: "validate_shape"
    value {
      b: true
    }
  }
}
node {
  name: "save/Assign_280"
  op: "Assign"
  input: "FeatureExtractor/MobilenetV2/expanded_conv_9/expand/BatchNorm/gamma"
  input: "save/RestoreV2:280"
  attr {
    key: "T"
    value {
      type: DT_FLOAT
    }
  }
  attr {
    key: "_class"
    value {
      list {
        s: "loc:@FeatureExtractor/MobilenetV2/expanded_conv_9/expand/BatchNorm/gamma"
      }
    }
  }
  attr {
    key: "use_locking"
    value {
      b: true
    }
  }
  attr {
    key: "validate_shape"
    value {
      b: true
    }
  }
}
node {
  name: "save/Assign_281"
  op: "Assign"
  input: "FeatureExtractor/MobilenetV2/expanded_conv_9/expand/BatchNorm/moving_mean"
  input: "save/RestoreV2:281"
  attr {
    key: "T"
    value {
      type: DT_FLOAT
    }
  }
  attr {
    key: "_class"
    value {
      list {
        s: "loc:@FeatureExtractor/MobilenetV2/expanded_conv_9/expand/BatchNorm/moving_mean"
      }
    }
  }
  attr {
    key: "use_locking"
    value {
      b: true
    }
  }
  attr {
    key: "validate_shape"
    value {
      b: true
    }
  }
}
node {
  name: "save/Assign_282"
  op: "Assign"
  input: "FeatureExtractor/MobilenetV2/expanded_conv_9/expand/BatchNorm/moving_variance"
  input: "save/RestoreV2:282"
  attr {
    key: "T"
    value {
      type: DT_FLOAT
    }
  }
  attr {
    key: "_class"
    value {
      list {
        s: "loc:@FeatureExtractor/MobilenetV2/expanded_conv_9/expand/BatchNorm/moving_variance"
      }
    }
  }
  attr {
    key: "use_locking"
    value {
      b: true
    }
  }
  attr {
    key: "validate_shape"
    value {
      b: true
    }
  }
}
node {
  name: "save/Assign_283"
  op: "Assign"
  input: "FeatureExtractor/MobilenetV2/expanded_conv_9/expand/weights"
  input: "save/RestoreV2:283"
  attr {
    key: "T"
    value {
      type: DT_FLOAT
    }
  }
  attr {
    key: "_class"
    value {
      list {
        s: "loc:@FeatureExtractor/MobilenetV2/expanded_conv_9/expand/weights"
      }
    }
  }
  attr {
    key: "use_locking"
    value {
      b: true
    }
  }
  attr {
    key: "validate_shape"
    value {
      b: true
    }
  }
}
node {
  name: "save/Assign_284"
  op: "Assign"
  input: "FeatureExtractor/MobilenetV2/expanded_conv_9/project/BatchNorm/beta"
  input: "save/RestoreV2:284"
  attr {
    key: "T"
    value {
      type: DT_FLOAT
    }
  }
  attr {
    key: "_class"
    value {
      list {
        s: "loc:@FeatureExtractor/MobilenetV2/expanded_conv_9/project/BatchNorm/beta"
      }
    }
  }
  attr {
    key: "use_locking"
    value {
      b: true
    }
  }
  attr {
    key: "validate_shape"
    value {
      b: true
    }
  }
}
node {
  name: "save/Assign_285"
  op: "Assign"
  input: "FeatureExtractor/MobilenetV2/expanded_conv_9/project/BatchNorm/gamma"
  input: "save/RestoreV2:285"
  attr {
    key: "T"
    value {
      type: DT_FLOAT
    }
  }
  attr {
    key: "_class"
    value {
      list {
        s: "loc:@FeatureExtractor/MobilenetV2/expanded_conv_9/project/BatchNorm/gamma"
      }
    }
  }
  attr {
    key: "use_locking"
    value {
      b: true
    }
  }
  attr {
    key: "validate_shape"
    value {
      b: true
    }
  }
}
node {
  name: "save/Assign_286"
  op: "Assign"
  input: "FeatureExtractor/MobilenetV2/expanded_conv_9/project/BatchNorm/moving_mean"
  input: "save/RestoreV2:286"
  attr {
    key: "T"
    value {
      type: DT_FLOAT
    }
  }
  attr {
    key: "_class"
    value {
      list {
        s: "loc:@FeatureExtractor/MobilenetV2/expanded_conv_9/project/BatchNorm/moving_mean"
      }
    }
  }
  attr {
    key: "use_locking"
    value {
      b: true
    }
  }
  attr {
    key: "validate_shape"
    value {
      b: true
    }
  }
}
node {
  name: "save/Assign_287"
  op: "Assign"
  input: "FeatureExtractor/MobilenetV2/expanded_conv_9/project/BatchNorm/moving_variance"
  input: "save/RestoreV2:287"
  attr {
    key: "T"
    value {
      type: DT_FLOAT
    }
  }
  attr {
    key: "_class"
    value {
      list {
        s: "loc:@FeatureExtractor/MobilenetV2/expanded_conv_9/project/BatchNorm/moving_variance"
      }
    }
  }
  attr {
    key: "use_locking"
    value {
      b: true
    }
  }
  attr {
    key: "validate_shape"
    value {
      b: true
    }
  }
}
node {
  name: "save/Assign_288"
  op: "Assign"
  input: "FeatureExtractor/MobilenetV2/expanded_conv_9/project/weights"
  input: "save/RestoreV2:288"
  attr {
    key: "T"
    value {
      type: DT_FLOAT
    }
  }
  attr {
    key: "_class"
    value {
      list {
        s: "loc:@FeatureExtractor/MobilenetV2/expanded_conv_9/project/weights"
      }
    }
  }
  attr {
    key: "use_locking"
    value {
      b: true
    }
  }
  attr {
    key: "validate_shape"
    value {
      b: true
    }
  }
}
node {
  name: "save/Assign_289"
  op: "Assign"
  input: "global_step"
  input: "save/RestoreV2:289"
  attr {
    key: "T"
    value {
      type: DT_INT64
    }
  }
  attr {
    key: "_class"
    value {
      list {
        s: "loc:@global_step"
      }
    }
  }
  attr {
    key: "use_locking"
    value {
      b: true
    }
  }
  attr {
    key: "validate_shape"
    value {
      b: true
    }
  }
}
node {
  name: "save/restore_all"
  op: "NoOp"
  input: "^save/Assign"
  input: "^save/Assign_1"
  input: "^save/Assign_10"
  input: "^save/Assign_100"
  input: "^save/Assign_101"
  input: "^save/Assign_102"
  input: "^save/Assign_103"
  input: "^save/Assign_104"
  input: "^save/Assign_105"
  input: "^save/Assign_106"
  input: "^save/Assign_107"
  input: "^save/Assign_108"
  input: "^save/Assign_109"
  input: "^save/Assign_11"
  input: "^save/Assign_110"
  input: "^save/Assign_111"
  input: "^save/Assign_112"
  input: "^save/Assign_113"
  input: "^save/Assign_114"
  input: "^save/Assign_115"
  input: "^save/Assign_116"
  input: "^save/Assign_117"
  input: "^save/Assign_118"
  input: "^save/Assign_119"
  input: "^save/Assign_12"
  input: "^save/Assign_120"
  input: "^save/Assign_121"
  input: "^save/Assign_122"
  input: "^save/Assign_123"
  input: "^save/Assign_124"
  input: "^save/Assign_125"
  input: "^save/Assign_126"
  input: "^save/Assign_127"
  input: "^save/Assign_128"
  input: "^save/Assign_129"
  input: "^save/Assign_13"
  input: "^save/Assign_130"
  input: "^save/Assign_131"
  input: "^save/Assign_132"
  input: "^save/Assign_133"
  input: "^save/Assign_134"
  input: "^save/Assign_135"
  input: "^save/Assign_136"
  input: "^save/Assign_137"
  input: "^save/Assign_138"
  input: "^save/Assign_139"
  input: "^save/Assign_14"
  input: "^save/Assign_140"
  input: "^save/Assign_141"
  input: "^save/Assign_142"
  input: "^save/Assign_143"
  input: "^save/Assign_144"
  input: "^save/Assign_145"
  input: "^save/Assign_146"
  input: "^save/Assign_147"
  input: "^save/Assign_148"
  input: "^save/Assign_149"
  input: "^save/Assign_15"
  input: "^save/Assign_150"
  input: "^save/Assign_151"
  input: "^save/Assign_152"
  input: "^save/Assign_153"
  input: "^save/Assign_154"
  input: "^save/Assign_155"
  input: "^save/Assign_156"
  input: "^save/Assign_157"
  input: "^save/Assign_158"
  input: "^save/Assign_159"
  input: "^save/Assign_16"
  input: "^save/Assign_160"
  input: "^save/Assign_161"
  input: "^save/Assign_162"
  input: "^save/Assign_163"
  input: "^save/Assign_164"
  input: "^save/Assign_165"
  input: "^save/Assign_166"
  input: "^save/Assign_167"
  input: "^save/Assign_168"
  input: "^save/Assign_169"
  input: "^save/Assign_17"
  input: "^save/Assign_170"
  input: "^save/Assign_171"
  input: "^save/Assign_172"
  input: "^save/Assign_173"
  input: "^save/Assign_174"
  input: "^save/Assign_175"
  input: "^save/Assign_176"
  input: "^save/Assign_177"
  input: "^save/Assign_178"
  input: "^save/Assign_179"
  input: "^save/Assign_18"
  input: "^save/Assign_180"
  input: "^save/Assign_181"
  input: "^save/Assign_182"
  input: "^save/Assign_183"
  input: "^save/Assign_184"
  input: "^save/Assign_185"
  input: "^save/Assign_186"
  input: "^save/Assign_187"
  input: "^save/Assign_188"
  input: "^save/Assign_189"
  input: "^save/Assign_19"
  input: "^save/Assign_190"
  input: "^save/Assign_191"
  input: "^save/Assign_192"
  input: "^save/Assign_193"
  input: "^save/Assign_194"
  input: "^save/Assign_195"
  input: "^save/Assign_196"
  input: "^save/Assign_197"
  input: "^save/Assign_198"
  input: "^save/Assign_199"
  input: "^save/Assign_2"
  input: "^save/Assign_20"
  input: "^save/Assign_200"
  input: "^save/Assign_201"
  input: "^save/Assign_202"
  input: "^save/Assign_203"
  input: "^save/Assign_204"
  input: "^save/Assign_205"
  input: "^save/Assign_206"
  input: "^save/Assign_207"
  input: "^save/Assign_208"
  input: "^save/Assign_209"
  input: "^save/Assign_21"
  input: "^save/Assign_210"
  input: "^save/Assign_211"
  input: "^save/Assign_212"
  input: "^save/Assign_213"
  input: "^save/Assign_214"
  input: "^save/Assign_215"
  input: "^save/Assign_216"
  input: "^save/Assign_217"
  input: "^save/Assign_218"
  input: "^save/Assign_219"
  input: "^save/Assign_22"
  input: "^save/Assign_220"
  input: "^save/Assign_221"
  input: "^save/Assign_222"
  input: "^save/Assign_223"
  input: "^save/Assign_224"
  input: "^save/Assign_225"
  input: "^save/Assign_226"
  input: "^save/Assign_227"
  input: "^save/Assign_228"
  input: "^save/Assign_229"
  input: "^save/Assign_23"
  input: "^save/Assign_230"
  input: "^save/Assign_231"
  input: "^save/Assign_232"
  input: "^save/Assign_233"
  input: "^save/Assign_234"
  input: "^save/Assign_235"
  input: "^save/Assign_236"
  input: "^save/Assign_237"
  input: "^save/Assign_238"
  input: "^save/Assign_239"
  input: "^save/Assign_24"
  input: "^save/Assign_240"
  input: "^save/Assign_241"
  input: "^save/Assign_242"
  input: "^save/Assign_243"
  input: "^save/Assign_244"
  input: "^save/Assign_245"
  input: "^save/Assign_246"
  input: "^save/Assign_247"
  input: "^save/Assign_248"
  input: "^save/Assign_249"
  input: "^save/Assign_25"
  input: "^save/Assign_250"
  input: "^save/Assign_251"
  input: "^save/Assign_252"
  input: "^save/Assign_253"
  input: "^save/Assign_254"
  input: "^save/Assign_255"
  input: "^save/Assign_256"
  input: "^save/Assign_257"
  input: "^save/Assign_258"
  input: "^save/Assign_259"
  input: "^save/Assign_26"
  input: "^save/Assign_260"
  input: "^save/Assign_261"
  input: "^save/Assign_262"
  input: "^save/Assign_263"
  input: "^save/Assign_264"
  input: "^save/Assign_265"
  input: "^save/Assign_266"
  input: "^save/Assign_267"
  input: "^save/Assign_268"
  input: "^save/Assign_269"
  input: "^save/Assign_27"
  input: "^save/Assign_270"
  input: "^save/Assign_271"
  input: "^save/Assign_272"
  input: "^save/Assign_273"
  input: "^save/Assign_274"
  input: "^save/Assign_275"
  input: "^save/Assign_276"
  input: "^save/Assign_277"
  input: "^save/Assign_278"
  input: "^save/Assign_279"
  input: "^save/Assign_28"
  input: "^save/Assign_280"
  input: "^save/Assign_281"
  input: "^save/Assign_282"
  input: "^save/Assign_283"
  input: "^save/Assign_284"
  input: "^save/Assign_285"
  input: "^save/Assign_286"
  input: "^save/Assign_287"
  input: "^save/Assign_288"
  input: "^save/Assign_289"
  input: "^save/Assign_29"
  input: "^save/Assign_3"
  input: "^save/Assign_30"
  input: "^save/Assign_31"
  input: "^save/Assign_32"
  input: "^save/Assign_33"
  input: "^save/Assign_34"
  input: "^save/Assign_35"
  input: "^save/Assign_36"
  input: "^save/Assign_37"
  input: "^save/Assign_38"
  input: "^save/Assign_39"
  input: "^save/Assign_4"
  input: "^save/Assign_40"
  input: "^save/Assign_41"
  input: "^save/Assign_42"
  input: "^save/Assign_43"
  input: "^save/Assign_44"
  input: "^save/Assign_45"
  input: "^save/Assign_46"
  input: "^save/Assign_47"
  input: "^save/Assign_48"
  input: "^save/Assign_49"
  input: "^save/Assign_5"
  input: "^save/Assign_50"
  input: "^save/Assign_51"
  input: "^save/Assign_52"
  input: "^save/Assign_53"
  input: "^save/Assign_54"
  input: "^save/Assign_55"
  input: "^save/Assign_56"
  input: "^save/Assign_57"
  input: "^save/Assign_58"
  input: "^save/Assign_59"
  input: "^save/Assign_6"
  input: "^save/Assign_60"
  input: "^save/Assign_61"
  input: "^save/Assign_62"
  input: "^save/Assign_63"
  input: "^save/Assign_64"
  input: "^save/Assign_65"
  input: "^save/Assign_66"
  input: "^save/Assign_67"
  input: "^save/Assign_68"
  input: "^save/Assign_69"
  input: "^save/Assign_7"
  input: "^save/Assign_70"
  input: "^save/Assign_71"
  input: "^save/Assign_72"
  input: "^save/Assign_73"
  input: "^save/Assign_74"
  input: "^save/Assign_75"
  input: "^save/Assign_76"
  input: "^save/Assign_77"
  input: "^save/Assign_78"
  input: "^save/Assign_79"
  input: "^save/Assign_8"
  input: "^save/Assign_80"
  input: "^save/Assign_81"
  input: "^save/Assign_82"
  input: "^save/Assign_83"
  input: "^save/Assign_84"
  input: "^save/Assign_85"
  input: "^save/Assign_86"
  input: "^save/Assign_87"
  input: "^save/Assign_88"
  input: "^save/Assign_89"
  input: "^save/Assign_9"
  input: "^save/Assign_90"
  input: "^save/Assign_91"
  input: "^save/Assign_92"
  input: "^save/Assign_93"
  input: "^save/Assign_94"
  input: "^save/Assign_95"
  input: "^save/Assign_96"
  input: "^save/Assign_97"
  input: "^save/Assign_98"
  input: "^save/Assign_99"
}
versions {
  producer: 38
}
